node {
  name: "Const"
  op: "Const"
  attr {
    key: "_output_shapes"
    value {
      list {
        shape {
        }
      }
    }
  }
  attr {
    key: "dtype"
    value {
      type: DT_FLOAT
    }
  }
  attr {
    key: "value"
    value {
      tensor {
        dtype: DT_FLOAT
        tensor_shape {
        }
        float_val: 1.0
      }
    }
  }
}
node {
  name: "Const_1"
  op: "Const"
  attr {
    key: "_output_shapes"
    value {
      list {
        shape {
        }
      }
    }
  }
  attr {
    key: "dtype"
    value {
      type: DT_FLOAT
    }
  }
  attr {
    key: "value"
    value {
      tensor {
        dtype: DT_FLOAT
        tensor_shape {
        }
        float_val: 0.0
      }
    }
  }
}
node {
  name: "global_step/Initializer/zeros"
  op: "Const"
  attr {
    key: "_class"
    value {
      list {
        s: "loc:@global_step"
      }
    }
  }
  attr {
    key: "_output_shapes"
    value {
      list {
        shape {
        }
      }
    }
  }
  attr {
    key: "dtype"
    value {
      type: DT_INT64
    }
  }
  attr {
    key: "value"
    value {
      tensor {
        dtype: DT_INT64
        tensor_shape {
        }
        int64_val: 0
      }
    }
  }
}
node {
  name: "global_step"
  op: "VariableV2"
  attr {
    key: "_class"
    value {
      list {
        s: "loc:@global_step"
      }
    }
  }
  attr {
    key: "_output_shapes"
    value {
      list {
        shape {
        }
      }
    }
  }
  attr {
    key: "container"
    value {
      s: ""
    }
  }
  attr {
    key: "dtype"
    value {
      type: DT_INT64
    }
  }
  attr {
    key: "shape"
    value {
      shape {
      }
    }
  }
  attr {
    key: "shared_name"
    value {
      s: ""
    }
  }
}
node {
  name: "global_step/Assign"
  op: "Assign"
  input: "global_step"
  input: "global_step/Initializer/zeros"
  attr {
    key: "T"
    value {
      type: DT_INT64
    }
  }
  attr {
    key: "_class"
    value {
      list {
        s: "loc:@global_step"
      }
    }
  }
  attr {
    key: "_output_shapes"
    value {
      list {
        shape {
        }
      }
    }
  }
  attr {
    key: "use_locking"
    value {
      b: true
    }
  }
  attr {
    key: "validate_shape"
    value {
      b: true
    }
  }
}
node {
  name: "global_step/read"
  op: "Identity"
  input: "global_step"
  attr {
    key: "T"
    value {
      type: DT_INT64
    }
  }
  attr {
    key: "_class"
    value {
      list {
        s: "loc:@global_step"
      }
    }
  }
  attr {
    key: "_output_shapes"
    value {
      list {
        shape {
        }
      }
    }
  }
}
node {
  name: "load_batch/parallel_read/filenames/Const"
  op: "Const"
  attr {
    key: "_output_shapes"
    value {
      list {
        shape {
          dim {
            size: 1
          }
        }
      }
    }
  }
  attr {
    key: "dtype"
    value {
      type: DT_STRING
    }
  }
  attr {
    key: "value"
    value {
      tensor {
        dtype: DT_STRING
        tensor_shape {
          dim {
            size: 1
          }
        }
        string_val: "./data/tfrecords/fc_sample.tfrecords"
      }
    }
  }
}
node {
  name: "load_batch/parallel_read/filenames/Size"
  op: "Const"
  attr {
    key: "_output_shapes"
    value {
      list {
        shape {
        }
      }
    }
  }
  attr {
    key: "dtype"
    value {
      type: DT_INT32
    }
  }
  attr {
    key: "value"
    value {
      tensor {
        dtype: DT_INT32
        tensor_shape {
        }
        int_val: 1
      }
    }
  }
}
node {
  name: "load_batch/parallel_read/filenames/Greater/y"
  op: "Const"
  attr {
    key: "_output_shapes"
    value {
      list {
        shape {
        }
      }
    }
  }
  attr {
    key: "dtype"
    value {
      type: DT_INT32
    }
  }
  attr {
    key: "value"
    value {
      tensor {
        dtype: DT_INT32
        tensor_shape {
        }
        int_val: 0
      }
    }
  }
}
node {
  name: "load_batch/parallel_read/filenames/Greater"
  op: "Greater"
  input: "load_batch/parallel_read/filenames/Size"
  input: "load_batch/parallel_read/filenames/Greater/y"
  attr {
    key: "T"
    value {
      type: DT_INT32
    }
  }
  attr {
    key: "_output_shapes"
    value {
      list {
        shape {
        }
      }
    }
  }
}
node {
  name: "load_batch/parallel_read/filenames/Assert/Const"
  op: "Const"
  attr {
    key: "_output_shapes"
    value {
      list {
        shape {
        }
      }
    }
  }
  attr {
    key: "dtype"
    value {
      type: DT_STRING
    }
  }
  attr {
    key: "value"
    value {
      tensor {
        dtype: DT_STRING
        tensor_shape {
        }
        string_val: "string_input_producer requires a non-null input tensor"
      }
    }
  }
}
node {
  name: "load_batch/parallel_read/filenames/Assert/Assert/data_0"
  op: "Const"
  attr {
    key: "_output_shapes"
    value {
      list {
        shape {
        }
      }
    }
  }
  attr {
    key: "dtype"
    value {
      type: DT_STRING
    }
  }
  attr {
    key: "value"
    value {
      tensor {
        dtype: DT_STRING
        tensor_shape {
        }
        string_val: "string_input_producer requires a non-null input tensor"
      }
    }
  }
}
node {
  name: "load_batch/parallel_read/filenames/Assert/Assert"
  op: "Assert"
  input: "load_batch/parallel_read/filenames/Greater"
  input: "load_batch/parallel_read/filenames/Assert/Assert/data_0"
  attr {
    key: "T"
    value {
      list {
        type: DT_STRING
      }
    }
  }
  attr {
    key: "summarize"
    value {
      i: 3
    }
  }
}
node {
  name: "load_batch/parallel_read/filenames/Identity"
  op: "Identity"
  input: "load_batch/parallel_read/filenames/Const"
  input: "^load_batch/parallel_read/filenames/Assert/Assert"
  attr {
    key: "T"
    value {
      type: DT_STRING
    }
  }
  attr {
    key: "_output_shapes"
    value {
      list {
        shape {
          dim {
            size: 1
          }
        }
      }
    }
  }
}
node {
  name: "load_batch/parallel_read/filenames/RandomShuffle"
  op: "RandomShuffle"
  input: "load_batch/parallel_read/filenames/Identity"
  attr {
    key: "T"
    value {
      type: DT_STRING
    }
  }
  attr {
    key: "_output_shapes"
    value {
      list {
        shape {
          dim {
            size: 1
          }
        }
      }
    }
  }
  attr {
    key: "seed"
    value {
      i: 0
    }
  }
  attr {
    key: "seed2"
    value {
      i: 0
    }
  }
}
node {
  name: "load_batch/parallel_read/filenames"
  op: "FIFOQueueV2"
  attr {
    key: "_output_shapes"
    value {
      list {
        shape {
        }
      }
    }
  }
  attr {
    key: "capacity"
    value {
      i: 32
    }
  }
  attr {
    key: "component_types"
    value {
      list {
        type: DT_STRING
      }
    }
  }
  attr {
    key: "container"
    value {
      s: ""
    }
  }
  attr {
    key: "shapes"
    value {
      list {
        shape {
        }
      }
    }
  }
  attr {
    key: "shared_name"
    value {
      s: ""
    }
  }
}
node {
  name: "load_batch/parallel_read/filenames/filenames_EnqueueMany"
  op: "QueueEnqueueManyV2"
  input: "load_batch/parallel_read/filenames"
  input: "load_batch/parallel_read/filenames/RandomShuffle"
  attr {
    key: "Tcomponents"
    value {
      list {
        type: DT_STRING
      }
    }
  }
  attr {
    key: "timeout_ms"
    value {
      i: -1
    }
  }
}
node {
  name: "load_batch/parallel_read/filenames/filenames_Close"
  op: "QueueCloseV2"
  input: "load_batch/parallel_read/filenames"
  attr {
    key: "cancel_pending_enqueues"
    value {
      b: false
    }
  }
}
node {
  name: "load_batch/parallel_read/filenames/filenames_Close_1"
  op: "QueueCloseV2"
  input: "load_batch/parallel_read/filenames"
  attr {
    key: "cancel_pending_enqueues"
    value {
      b: true
    }
  }
}
node {
  name: "load_batch/parallel_read/filenames/filenames_Size"
  op: "QueueSizeV2"
  input: "load_batch/parallel_read/filenames"
  attr {
    key: "_output_shapes"
    value {
      list {
        shape {
        }
      }
    }
  }
}
node {
  name: "load_batch/parallel_read/filenames/ToFloat"
  op: "Cast"
  input: "load_batch/parallel_read/filenames/filenames_Size"
  attr {
    key: "DstT"
    value {
      type: DT_FLOAT
    }
  }
  attr {
    key: "SrcT"
    value {
      type: DT_INT32
    }
  }
  attr {
    key: "_output_shapes"
    value {
      list {
        shape {
        }
      }
    }
  }
}
node {
  name: "load_batch/parallel_read/filenames/mul/y"
  op: "Const"
  attr {
    key: "_output_shapes"
    value {
      list {
        shape {
        }
      }
    }
  }
  attr {
    key: "dtype"
    value {
      type: DT_FLOAT
    }
  }
  attr {
    key: "value"
    value {
      tensor {
        dtype: DT_FLOAT
        tensor_shape {
        }
        float_val: 0.03125
      }
    }
  }
}
node {
  name: "load_batch/parallel_read/filenames/mul"
  op: "Mul"
  input: "load_batch/parallel_read/filenames/ToFloat"
  input: "load_batch/parallel_read/filenames/mul/y"
  attr {
    key: "T"
    value {
      type: DT_FLOAT
    }
  }
  attr {
    key: "_output_shapes"
    value {
      list {
        shape {
        }
      }
    }
  }
}
node {
  name: "load_batch/parallel_read/filenames/fraction_of_32_full/tags"
  op: "Const"
  attr {
    key: "_output_shapes"
    value {
      list {
        shape {
        }
      }
    }
  }
  attr {
    key: "dtype"
    value {
      type: DT_STRING
    }
  }
  attr {
    key: "value"
    value {
      tensor {
        dtype: DT_STRING
        tensor_shape {
        }
        string_val: "load_batch/parallel_read/filenames/fraction_of_32_full"
      }
    }
  }
}
node {
  name: "load_batch/parallel_read/filenames/fraction_of_32_full"
  op: "ScalarSummary"
  input: "load_batch/parallel_read/filenames/fraction_of_32_full/tags"
  input: "load_batch/parallel_read/filenames/mul"
  attr {
    key: "T"
    value {
      type: DT_FLOAT
    }
  }
  attr {
    key: "_output_shapes"
    value {
      list {
        shape {
        }
      }
    }
  }
}
node {
  name: "load_batch/parallel_read/common_queue"
  op: "RandomShuffleQueueV2"
  attr {
    key: "_output_shapes"
    value {
      list {
        shape {
        }
      }
    }
  }
  attr {
    key: "capacity"
    value {
      i: 1024
    }
  }
  attr {
    key: "component_types"
    value {
      list {
        type: DT_STRING
        type: DT_STRING
      }
    }
  }
  attr {
    key: "container"
    value {
      s: ""
    }
  }
  attr {
    key: "min_after_dequeue"
    value {
      i: 512
    }
  }
  attr {
    key: "seed"
    value {
      i: 0
    }
  }
  attr {
    key: "seed2"
    value {
      i: 0
    }
  }
  attr {
    key: "shapes"
    value {
      list {
      }
    }
  }
  attr {
    key: "shared_name"
    value {
      s: ""
    }
  }
}
node {
  name: "load_batch/parallel_read/common_queue_Size"
  op: "QueueSizeV2"
  input: "load_batch/parallel_read/common_queue"
  attr {
    key: "_output_shapes"
    value {
      list {
        shape {
        }
      }
    }
  }
}
node {
  name: "load_batch/parallel_read/ToFloat"
  op: "Cast"
  input: "load_batch/parallel_read/common_queue_Size"
  attr {
    key: "DstT"
    value {
      type: DT_FLOAT
    }
  }
  attr {
    key: "SrcT"
    value {
      type: DT_INT32
    }
  }
  attr {
    key: "_output_shapes"
    value {
      list {
        shape {
        }
      }
    }
  }
}
node {
  name: "load_batch/parallel_read/mul/y"
  op: "Const"
  attr {
    key: "_output_shapes"
    value {
      list {
        shape {
        }
      }
    }
  }
  attr {
    key: "dtype"
    value {
      type: DT_FLOAT
    }
  }
  attr {
    key: "value"
    value {
      tensor {
        dtype: DT_FLOAT
        tensor_shape {
        }
        float_val: 0.0009765625
      }
    }
  }
}
node {
  name: "load_batch/parallel_read/mul"
  op: "Mul"
  input: "load_batch/parallel_read/ToFloat"
  input: "load_batch/parallel_read/mul/y"
  attr {
    key: "T"
    value {
      type: DT_FLOAT
    }
  }
  attr {
    key: "_output_shapes"
    value {
      list {
        shape {
        }
      }
    }
  }
}
node {
  name: "load_batch/parallel_read/fraction_of_1024_full/tags"
  op: "Const"
  attr {
    key: "_output_shapes"
    value {
      list {
        shape {
        }
      }
    }
  }
  attr {
    key: "dtype"
    value {
      type: DT_STRING
    }
  }
  attr {
    key: "value"
    value {
      tensor {
        dtype: DT_STRING
        tensor_shape {
        }
        string_val: "load_batch/parallel_read/fraction_of_1024_full"
      }
    }
  }
}
node {
  name: "load_batch/parallel_read/fraction_of_1024_full"
  op: "ScalarSummary"
  input: "load_batch/parallel_read/fraction_of_1024_full/tags"
  input: "load_batch/parallel_read/mul"
  attr {
    key: "T"
    value {
      type: DT_FLOAT
    }
  }
  attr {
    key: "_output_shapes"
    value {
      list {
        shape {
        }
      }
    }
  }
}
node {
  name: "load_batch/parallel_read/TFRecordReaderV2"
  op: "TFRecordReaderV2"
  attr {
    key: "_output_shapes"
    value {
      list {
        shape {
        }
      }
    }
  }
  attr {
    key: "compression_type"
    value {
      s: "ZLIB"
    }
  }
  attr {
    key: "container"
    value {
      s: ""
    }
  }
  attr {
    key: "shared_name"
    value {
      s: ""
    }
  }
}
node {
  name: "load_batch/parallel_read/TFRecordReaderV2_1"
  op: "TFRecordReaderV2"
  attr {
    key: "_output_shapes"
    value {
      list {
        shape {
        }
      }
    }
  }
  attr {
    key: "compression_type"
    value {
      s: "ZLIB"
    }
  }
  attr {
    key: "container"
    value {
      s: ""
    }
  }
  attr {
    key: "shared_name"
    value {
      s: ""
    }
  }
}
node {
  name: "load_batch/parallel_read/TFRecordReaderV2_2"
  op: "TFRecordReaderV2"
  attr {
    key: "_output_shapes"
    value {
      list {
        shape {
        }
      }
    }
  }
  attr {
    key: "compression_type"
    value {
      s: "ZLIB"
    }
  }
  attr {
    key: "container"
    value {
      s: ""
    }
  }
  attr {
    key: "shared_name"
    value {
      s: ""
    }
  }
}
node {
  name: "load_batch/parallel_read/TFRecordReaderV2_3"
  op: "TFRecordReaderV2"
  attr {
    key: "_output_shapes"
    value {
      list {
        shape {
        }
      }
    }
  }
  attr {
    key: "compression_type"
    value {
      s: "ZLIB"
    }
  }
  attr {
    key: "container"
    value {
      s: ""
    }
  }
  attr {
    key: "shared_name"
    value {
      s: ""
    }
  }
}
node {
  name: "load_batch/parallel_read/TFRecordReaderV2_4"
  op: "TFRecordReaderV2"
  attr {
    key: "_output_shapes"
    value {
      list {
        shape {
        }
      }
    }
  }
  attr {
    key: "compression_type"
    value {
      s: "ZLIB"
    }
  }
  attr {
    key: "container"
    value {
      s: ""
    }
  }
  attr {
    key: "shared_name"
    value {
      s: ""
    }
  }
}
node {
  name: "load_batch/parallel_read/TFRecordReaderV2_5"
  op: "TFRecordReaderV2"
  attr {
    key: "_output_shapes"
    value {
      list {
        shape {
        }
      }
    }
  }
  attr {
    key: "compression_type"
    value {
      s: "ZLIB"
    }
  }
  attr {
    key: "container"
    value {
      s: ""
    }
  }
  attr {
    key: "shared_name"
    value {
      s: ""
    }
  }
}
node {
  name: "load_batch/parallel_read/TFRecordReaderV2_6"
  op: "TFRecordReaderV2"
  attr {
    key: "_output_shapes"
    value {
      list {
        shape {
        }
      }
    }
  }
  attr {
    key: "compression_type"
    value {
      s: "ZLIB"
    }
  }
  attr {
    key: "container"
    value {
      s: ""
    }
  }
  attr {
    key: "shared_name"
    value {
      s: ""
    }
  }
}
node {
  name: "load_batch/parallel_read/TFRecordReaderV2_7"
  op: "TFRecordReaderV2"
  attr {
    key: "_output_shapes"
    value {
      list {
        shape {
        }
      }
    }
  }
  attr {
    key: "compression_type"
    value {
      s: "ZLIB"
    }
  }
  attr {
    key: "container"
    value {
      s: ""
    }
  }
  attr {
    key: "shared_name"
    value {
      s: ""
    }
  }
}
node {
  name: "load_batch/parallel_read/TFRecordReaderV2_8"
  op: "TFRecordReaderV2"
  attr {
    key: "_output_shapes"
    value {
      list {
        shape {
        }
      }
    }
  }
  attr {
    key: "compression_type"
    value {
      s: "ZLIB"
    }
  }
  attr {
    key: "container"
    value {
      s: ""
    }
  }
  attr {
    key: "shared_name"
    value {
      s: ""
    }
  }
}
node {
  name: "load_batch/parallel_read/TFRecordReaderV2_9"
  op: "TFRecordReaderV2"
  attr {
    key: "_output_shapes"
    value {
      list {
        shape {
        }
      }
    }
  }
  attr {
    key: "compression_type"
    value {
      s: "ZLIB"
    }
  }
  attr {
    key: "container"
    value {
      s: ""
    }
  }
  attr {
    key: "shared_name"
    value {
      s: ""
    }
  }
}
node {
  name: "load_batch/parallel_read/TFRecordReaderV2_10"
  op: "TFRecordReaderV2"
  attr {
    key: "_output_shapes"
    value {
      list {
        shape {
        }
      }
    }
  }
  attr {
    key: "compression_type"
    value {
      s: "ZLIB"
    }
  }
  attr {
    key: "container"
    value {
      s: ""
    }
  }
  attr {
    key: "shared_name"
    value {
      s: ""
    }
  }
}
node {
  name: "load_batch/parallel_read/TFRecordReaderV2_11"
  op: "TFRecordReaderV2"
  attr {
    key: "_output_shapes"
    value {
      list {
        shape {
        }
      }
    }
  }
  attr {
    key: "compression_type"
    value {
      s: "ZLIB"
    }
  }
  attr {
    key: "container"
    value {
      s: ""
    }
  }
  attr {
    key: "shared_name"
    value {
      s: ""
    }
  }
}
node {
  name: "load_batch/parallel_read/TFRecordReaderV2_12"
  op: "TFRecordReaderV2"
  attr {
    key: "_output_shapes"
    value {
      list {
        shape {
        }
      }
    }
  }
  attr {
    key: "compression_type"
    value {
      s: "ZLIB"
    }
  }
  attr {
    key: "container"
    value {
      s: ""
    }
  }
  attr {
    key: "shared_name"
    value {
      s: ""
    }
  }
}
node {
  name: "load_batch/parallel_read/TFRecordReaderV2_13"
  op: "TFRecordReaderV2"
  attr {
    key: "_output_shapes"
    value {
      list {
        shape {
        }
      }
    }
  }
  attr {
    key: "compression_type"
    value {
      s: "ZLIB"
    }
  }
  attr {
    key: "container"
    value {
      s: ""
    }
  }
  attr {
    key: "shared_name"
    value {
      s: ""
    }
  }
}
node {
  name: "load_batch/parallel_read/TFRecordReaderV2_14"
  op: "TFRecordReaderV2"
  attr {
    key: "_output_shapes"
    value {
      list {
        shape {
        }
      }
    }
  }
  attr {
    key: "compression_type"
    value {
      s: "ZLIB"
    }
  }
  attr {
    key: "container"
    value {
      s: ""
    }
  }
  attr {
    key: "shared_name"
    value {
      s: ""
    }
  }
}
node {
  name: "load_batch/parallel_read/TFRecordReaderV2_15"
  op: "TFRecordReaderV2"
  attr {
    key: "_output_shapes"
    value {
      list {
        shape {
        }
      }
    }
  }
  attr {
    key: "compression_type"
    value {
      s: "ZLIB"
    }
  }
  attr {
    key: "container"
    value {
      s: ""
    }
  }
  attr {
    key: "shared_name"
    value {
      s: ""
    }
  }
}
node {
  name: "load_batch/parallel_read/ReaderReadV2"
  op: "ReaderReadV2"
  input: "load_batch/parallel_read/TFRecordReaderV2"
  input: "load_batch/parallel_read/filenames"
  attr {
    key: "_output_shapes"
    value {
      list {
        shape {
        }
        shape {
        }
      }
    }
  }
}
node {
  name: "load_batch/parallel_read/common_queue_enqueue"
  op: "QueueEnqueueV2"
  input: "load_batch/parallel_read/common_queue"
  input: "load_batch/parallel_read/ReaderReadV2"
  input: "load_batch/parallel_read/ReaderReadV2:1"
  attr {
    key: "Tcomponents"
    value {
      list {
        type: DT_STRING
        type: DT_STRING
      }
    }
  }
  attr {
    key: "timeout_ms"
    value {
      i: -1
    }
  }
}
node {
  name: "load_batch/parallel_read/ReaderReadV2_1"
  op: "ReaderReadV2"
  input: "load_batch/parallel_read/TFRecordReaderV2_1"
  input: "load_batch/parallel_read/filenames"
  attr {
    key: "_output_shapes"
    value {
      list {
        shape {
        }
        shape {
        }
      }
    }
  }
}
node {
  name: "load_batch/parallel_read/common_queue_enqueue_1"
  op: "QueueEnqueueV2"
  input: "load_batch/parallel_read/common_queue"
  input: "load_batch/parallel_read/ReaderReadV2_1"
  input: "load_batch/parallel_read/ReaderReadV2_1:1"
  attr {
    key: "Tcomponents"
    value {
      list {
        type: DT_STRING
        type: DT_STRING
      }
    }
  }
  attr {
    key: "timeout_ms"
    value {
      i: -1
    }
  }
}
node {
  name: "load_batch/parallel_read/ReaderReadV2_2"
  op: "ReaderReadV2"
  input: "load_batch/parallel_read/TFRecordReaderV2_2"
  input: "load_batch/parallel_read/filenames"
  attr {
    key: "_output_shapes"
    value {
      list {
        shape {
        }
        shape {
        }
      }
    }
  }
}
node {
  name: "load_batch/parallel_read/common_queue_enqueue_2"
  op: "QueueEnqueueV2"
  input: "load_batch/parallel_read/common_queue"
  input: "load_batch/parallel_read/ReaderReadV2_2"
  input: "load_batch/parallel_read/ReaderReadV2_2:1"
  attr {
    key: "Tcomponents"
    value {
      list {
        type: DT_STRING
        type: DT_STRING
      }
    }
  }
  attr {
    key: "timeout_ms"
    value {
      i: -1
    }
  }
}
node {
  name: "load_batch/parallel_read/ReaderReadV2_3"
  op: "ReaderReadV2"
  input: "load_batch/parallel_read/TFRecordReaderV2_3"
  input: "load_batch/parallel_read/filenames"
  attr {
    key: "_output_shapes"
    value {
      list {
        shape {
        }
        shape {
        }
      }
    }
  }
}
node {
  name: "load_batch/parallel_read/common_queue_enqueue_3"
  op: "QueueEnqueueV2"
  input: "load_batch/parallel_read/common_queue"
  input: "load_batch/parallel_read/ReaderReadV2_3"
  input: "load_batch/parallel_read/ReaderReadV2_3:1"
  attr {
    key: "Tcomponents"
    value {
      list {
        type: DT_STRING
        type: DT_STRING
      }
    }
  }
  attr {
    key: "timeout_ms"
    value {
      i: -1
    }
  }
}
node {
  name: "load_batch/parallel_read/ReaderReadV2_4"
  op: "ReaderReadV2"
  input: "load_batch/parallel_read/TFRecordReaderV2_4"
  input: "load_batch/parallel_read/filenames"
  attr {
    key: "_output_shapes"
    value {
      list {
        shape {
        }
        shape {
        }
      }
    }
  }
}
node {
  name: "load_batch/parallel_read/common_queue_enqueue_4"
  op: "QueueEnqueueV2"
  input: "load_batch/parallel_read/common_queue"
  input: "load_batch/parallel_read/ReaderReadV2_4"
  input: "load_batch/parallel_read/ReaderReadV2_4:1"
  attr {
    key: "Tcomponents"
    value {
      list {
        type: DT_STRING
        type: DT_STRING
      }
    }
  }
  attr {
    key: "timeout_ms"
    value {
      i: -1
    }
  }
}
node {
  name: "load_batch/parallel_read/ReaderReadV2_5"
  op: "ReaderReadV2"
  input: "load_batch/parallel_read/TFRecordReaderV2_5"
  input: "load_batch/parallel_read/filenames"
  attr {
    key: "_output_shapes"
    value {
      list {
        shape {
        }
        shape {
        }
      }
    }
  }
}
node {
  name: "load_batch/parallel_read/common_queue_enqueue_5"
  op: "QueueEnqueueV2"
  input: "load_batch/parallel_read/common_queue"
  input: "load_batch/parallel_read/ReaderReadV2_5"
  input: "load_batch/parallel_read/ReaderReadV2_5:1"
  attr {
    key: "Tcomponents"
    value {
      list {
        type: DT_STRING
        type: DT_STRING
      }
    }
  }
  attr {
    key: "timeout_ms"
    value {
      i: -1
    }
  }
}
node {
  name: "load_batch/parallel_read/ReaderReadV2_6"
  op: "ReaderReadV2"
  input: "load_batch/parallel_read/TFRecordReaderV2_6"
  input: "load_batch/parallel_read/filenames"
  attr {
    key: "_output_shapes"
    value {
      list {
        shape {
        }
        shape {
        }
      }
    }
  }
}
node {
  name: "load_batch/parallel_read/common_queue_enqueue_6"
  op: "QueueEnqueueV2"
  input: "load_batch/parallel_read/common_queue"
  input: "load_batch/parallel_read/ReaderReadV2_6"
  input: "load_batch/parallel_read/ReaderReadV2_6:1"
  attr {
    key: "Tcomponents"
    value {
      list {
        type: DT_STRING
        type: DT_STRING
      }
    }
  }
  attr {
    key: "timeout_ms"
    value {
      i: -1
    }
  }
}
node {
  name: "load_batch/parallel_read/ReaderReadV2_7"
  op: "ReaderReadV2"
  input: "load_batch/parallel_read/TFRecordReaderV2_7"
  input: "load_batch/parallel_read/filenames"
  attr {
    key: "_output_shapes"
    value {
      list {
        shape {
        }
        shape {
        }
      }
    }
  }
}
node {
  name: "load_batch/parallel_read/common_queue_enqueue_7"
  op: "QueueEnqueueV2"
  input: "load_batch/parallel_read/common_queue"
  input: "load_batch/parallel_read/ReaderReadV2_7"
  input: "load_batch/parallel_read/ReaderReadV2_7:1"
  attr {
    key: "Tcomponents"
    value {
      list {
        type: DT_STRING
        type: DT_STRING
      }
    }
  }
  attr {
    key: "timeout_ms"
    value {
      i: -1
    }
  }
}
node {
  name: "load_batch/parallel_read/ReaderReadV2_8"
  op: "ReaderReadV2"
  input: "load_batch/parallel_read/TFRecordReaderV2_8"
  input: "load_batch/parallel_read/filenames"
  attr {
    key: "_output_shapes"
    value {
      list {
        shape {
        }
        shape {
        }
      }
    }
  }
}
node {
  name: "load_batch/parallel_read/common_queue_enqueue_8"
  op: "QueueEnqueueV2"
  input: "load_batch/parallel_read/common_queue"
  input: "load_batch/parallel_read/ReaderReadV2_8"
  input: "load_batch/parallel_read/ReaderReadV2_8:1"
  attr {
    key: "Tcomponents"
    value {
      list {
        type: DT_STRING
        type: DT_STRING
      }
    }
  }
  attr {
    key: "timeout_ms"
    value {
      i: -1
    }
  }
}
node {
  name: "load_batch/parallel_read/ReaderReadV2_9"
  op: "ReaderReadV2"
  input: "load_batch/parallel_read/TFRecordReaderV2_9"
  input: "load_batch/parallel_read/filenames"
  attr {
    key: "_output_shapes"
    value {
      list {
        shape {
        }
        shape {
        }
      }
    }
  }
}
node {
  name: "load_batch/parallel_read/common_queue_enqueue_9"
  op: "QueueEnqueueV2"
  input: "load_batch/parallel_read/common_queue"
  input: "load_batch/parallel_read/ReaderReadV2_9"
  input: "load_batch/parallel_read/ReaderReadV2_9:1"
  attr {
    key: "Tcomponents"
    value {
      list {
        type: DT_STRING
        type: DT_STRING
      }
    }
  }
  attr {
    key: "timeout_ms"
    value {
      i: -1
    }
  }
}
node {
  name: "load_batch/parallel_read/ReaderReadV2_10"
  op: "ReaderReadV2"
  input: "load_batch/parallel_read/TFRecordReaderV2_10"
  input: "load_batch/parallel_read/filenames"
  attr {
    key: "_output_shapes"
    value {
      list {
        shape {
        }
        shape {
        }
      }
    }
  }
}
node {
  name: "load_batch/parallel_read/common_queue_enqueue_10"
  op: "QueueEnqueueV2"
  input: "load_batch/parallel_read/common_queue"
  input: "load_batch/parallel_read/ReaderReadV2_10"
  input: "load_batch/parallel_read/ReaderReadV2_10:1"
  attr {
    key: "Tcomponents"
    value {
      list {
        type: DT_STRING
        type: DT_STRING
      }
    }
  }
  attr {
    key: "timeout_ms"
    value {
      i: -1
    }
  }
}
node {
  name: "load_batch/parallel_read/ReaderReadV2_11"
  op: "ReaderReadV2"
  input: "load_batch/parallel_read/TFRecordReaderV2_11"
  input: "load_batch/parallel_read/filenames"
  attr {
    key: "_output_shapes"
    value {
      list {
        shape {
        }
        shape {
        }
      }
    }
  }
}
node {
  name: "load_batch/parallel_read/common_queue_enqueue_11"
  op: "QueueEnqueueV2"
  input: "load_batch/parallel_read/common_queue"
  input: "load_batch/parallel_read/ReaderReadV2_11"
  input: "load_batch/parallel_read/ReaderReadV2_11:1"
  attr {
    key: "Tcomponents"
    value {
      list {
        type: DT_STRING
        type: DT_STRING
      }
    }
  }
  attr {
    key: "timeout_ms"
    value {
      i: -1
    }
  }
}
node {
  name: "load_batch/parallel_read/ReaderReadV2_12"
  op: "ReaderReadV2"
  input: "load_batch/parallel_read/TFRecordReaderV2_12"
  input: "load_batch/parallel_read/filenames"
  attr {
    key: "_output_shapes"
    value {
      list {
        shape {
        }
        shape {
        }
      }
    }
  }
}
node {
  name: "load_batch/parallel_read/common_queue_enqueue_12"
  op: "QueueEnqueueV2"
  input: "load_batch/parallel_read/common_queue"
  input: "load_batch/parallel_read/ReaderReadV2_12"
  input: "load_batch/parallel_read/ReaderReadV2_12:1"
  attr {
    key: "Tcomponents"
    value {
      list {
        type: DT_STRING
        type: DT_STRING
      }
    }
  }
  attr {
    key: "timeout_ms"
    value {
      i: -1
    }
  }
}
node {
  name: "load_batch/parallel_read/ReaderReadV2_13"
  op: "ReaderReadV2"
  input: "load_batch/parallel_read/TFRecordReaderV2_13"
  input: "load_batch/parallel_read/filenames"
  attr {
    key: "_output_shapes"
    value {
      list {
        shape {
        }
        shape {
        }
      }
    }
  }
}
node {
  name: "load_batch/parallel_read/common_queue_enqueue_13"
  op: "QueueEnqueueV2"
  input: "load_batch/parallel_read/common_queue"
  input: "load_batch/parallel_read/ReaderReadV2_13"
  input: "load_batch/parallel_read/ReaderReadV2_13:1"
  attr {
    key: "Tcomponents"
    value {
      list {
        type: DT_STRING
        type: DT_STRING
      }
    }
  }
  attr {
    key: "timeout_ms"
    value {
      i: -1
    }
  }
}
node {
  name: "load_batch/parallel_read/ReaderReadV2_14"
  op: "ReaderReadV2"
  input: "load_batch/parallel_read/TFRecordReaderV2_14"
  input: "load_batch/parallel_read/filenames"
  attr {
    key: "_output_shapes"
    value {
      list {
        shape {
        }
        shape {
        }
      }
    }
  }
}
node {
  name: "load_batch/parallel_read/common_queue_enqueue_14"
  op: "QueueEnqueueV2"
  input: "load_batch/parallel_read/common_queue"
  input: "load_batch/parallel_read/ReaderReadV2_14"
  input: "load_batch/parallel_read/ReaderReadV2_14:1"
  attr {
    key: "Tcomponents"
    value {
      list {
        type: DT_STRING
        type: DT_STRING
      }
    }
  }
  attr {
    key: "timeout_ms"
    value {
      i: -1
    }
  }
}
node {
  name: "load_batch/parallel_read/ReaderReadV2_15"
  op: "ReaderReadV2"
  input: "load_batch/parallel_read/TFRecordReaderV2_15"
  input: "load_batch/parallel_read/filenames"
  attr {
    key: "_output_shapes"
    value {
      list {
        shape {
        }
        shape {
        }
      }
    }
  }
}
node {
  name: "load_batch/parallel_read/common_queue_enqueue_15"
  op: "QueueEnqueueV2"
  input: "load_batch/parallel_read/common_queue"
  input: "load_batch/parallel_read/ReaderReadV2_15"
  input: "load_batch/parallel_read/ReaderReadV2_15:1"
  attr {
    key: "Tcomponents"
    value {
      list {
        type: DT_STRING
        type: DT_STRING
      }
    }
  }
  attr {
    key: "timeout_ms"
    value {
      i: -1
    }
  }
}
node {
  name: "load_batch/parallel_read/common_queue_Close"
  op: "QueueCloseV2"
  input: "load_batch/parallel_read/common_queue"
  attr {
    key: "cancel_pending_enqueues"
    value {
      b: false
    }
  }
}
node {
  name: "load_batch/parallel_read/common_queue_Close_1"
  op: "QueueCloseV2"
  input: "load_batch/parallel_read/common_queue"
  attr {
    key: "cancel_pending_enqueues"
    value {
      b: true
    }
  }
}
node {
  name: "load_batch/parallel_read/common_queue_Dequeue"
  op: "QueueDequeueV2"
  input: "load_batch/parallel_read/common_queue"
  attr {
    key: "_output_shapes"
    value {
      list {
        shape {
          unknown_rank: true
        }
        shape {
          unknown_rank: true
        }
      }
    }
  }
  attr {
    key: "component_types"
    value {
      list {
        type: DT_STRING
        type: DT_STRING
      }
    }
  }
  attr {
    key: "timeout_ms"
    value {
      i: -1
    }
  }
}
node {
  name: "load_batch/ParseSingleExample/Const"
  op: "Const"
  attr {
    key: "_output_shapes"
    value {
      list {
        shape {
          dim {
          }
        }
      }
    }
  }
  attr {
    key: "dtype"
    value {
      type: DT_STRING
    }
  }
  attr {
    key: "value"
    value {
      tensor {
        dtype: DT_STRING
        tensor_shape {
          dim {
          }
        }
      }
    }
  }
}
node {
  name: "load_batch/ParseSingleExample/Const_1"
  op: "Const"
  attr {
    key: "_output_shapes"
    value {
      list {
        shape {
          dim {
          }
        }
      }
    }
  }
  attr {
    key: "dtype"
    value {
      type: DT_STRING
    }
  }
  attr {
    key: "value"
    value {
      tensor {
        dtype: DT_STRING
        tensor_shape {
          dim {
          }
        }
      }
    }
  }
}
node {
  name: "load_batch/ParseSingleExample/Const_2"
  op: "Const"
  attr {
    key: "_output_shapes"
    value {
      list {
        shape {
          dim {
          }
        }
      }
    }
  }
  attr {
    key: "dtype"
    value {
      type: DT_STRING
    }
  }
  attr {
    key: "value"
    value {
      tensor {
        dtype: DT_STRING
        tensor_shape {
          dim {
          }
        }
      }
    }
  }
}
node {
  name: "load_batch/ParseSingleExample/ParseSingleExample"
  op: "ParseSingleExample"
  input: "load_batch/parallel_read/common_queue_Dequeue:1"
  input: "load_batch/ParseSingleExample/Const"
  input: "load_batch/ParseSingleExample/Const_1"
  input: "load_batch/ParseSingleExample/Const_2"
  attr {
    key: "Tdense"
    value {
      list {
        type: DT_STRING
        type: DT_STRING
        type: DT_STRING
      }
    }
  }
  attr {
    key: "_output_shapes"
    value {
      list {
        shape {
        }
        shape {
        }
        shape {
        }
      }
    }
  }
  attr {
    key: "dense_keys"
    value {
      list {
        s: "flow"
        s: "image_a"
        s: "image_b"
      }
    }
  }
  attr {
    key: "dense_shapes"
    value {
      list {
        shape {
        }
        shape {
        }
        shape {
        }
      }
    }
  }
  attr {
    key: "num_sparse"
    value {
      i: 0
    }
  }
  attr {
    key: "sparse_keys"
    value {
      list {
      }
    }
  }
  attr {
    key: "sparse_types"
    value {
      list {
      }
    }
  }
}
node {
  name: "load_batch/Reshape/shape"
  op: "Const"
  attr {
    key: "_output_shapes"
    value {
      list {
        shape {
          dim {
          }
        }
      }
    }
  }
  attr {
    key: "dtype"
    value {
      type: DT_INT32
    }
  }
  attr {
    key: "value"
    value {
      tensor {
        dtype: DT_INT32
        tensor_shape {
          dim {
          }
        }
      }
    }
  }
}
node {
  name: "load_batch/Reshape"
  op: "Reshape"
  input: "load_batch/ParseSingleExample/ParseSingleExample"
  input: "load_batch/Reshape/shape"
  attr {
    key: "T"
    value {
      type: DT_STRING
    }
  }
  attr {
    key: "Tshape"
    value {
      type: DT_INT32
    }
  }
  attr {
    key: "_output_shapes"
    value {
      list {
        shape {
        }
      }
    }
  }
}
node {
  name: "load_batch/Reshape_1/shape"
  op: "Const"
  attr {
    key: "_output_shapes"
    value {
      list {
        shape {
          dim {
          }
        }
      }
    }
  }
  attr {
    key: "dtype"
    value {
      type: DT_INT32
    }
  }
  attr {
    key: "value"
    value {
      tensor {
        dtype: DT_INT32
        tensor_shape {
          dim {
          }
        }
      }
    }
  }
}
node {
  name: "load_batch/Reshape_1"
  op: "Reshape"
  input: "load_batch/ParseSingleExample/ParseSingleExample:1"
  input: "load_batch/Reshape_1/shape"
  attr {
    key: "T"
    value {
      type: DT_STRING
    }
  }
  attr {
    key: "Tshape"
    value {
      type: DT_INT32
    }
  }
  attr {
    key: "_output_shapes"
    value {
      list {
        shape {
        }
      }
    }
  }
}
node {
  name: "load_batch/Reshape_2/shape"
  op: "Const"
  attr {
    key: "_output_shapes"
    value {
      list {
        shape {
          dim {
          }
        }
      }
    }
  }
  attr {
    key: "dtype"
    value {
      type: DT_INT32
    }
  }
  attr {
    key: "value"
    value {
      tensor {
        dtype: DT_INT32
        tensor_shape {
          dim {
          }
        }
      }
    }
  }
}
node {
  name: "load_batch/Reshape_2"
  op: "Reshape"
  input: "load_batch/ParseSingleExample/ParseSingleExample:2"
  input: "load_batch/Reshape_2/shape"
  attr {
    key: "T"
    value {
      type: DT_STRING
    }
  }
  attr {
    key: "Tshape"
    value {
      type: DT_INT32
    }
  }
  attr {
    key: "_output_shapes"
    value {
      list {
        shape {
        }
      }
    }
  }
}
node {
  name: "load_batch/DecodeRaw"
  op: "DecodeRaw"
  input: "load_batch/Reshape_1"
  attr {
    key: "_output_shapes"
    value {
      list {
        shape {
          dim {
            size: -1
          }
        }
      }
    }
  }
  attr {
    key: "little_endian"
    value {
      b: true
    }
  }
  attr {
    key: "out_type"
    value {
      type: DT_DOUBLE
    }
  }
}
node {
  name: "load_batch/Reshape_3/shape"
  op: "Const"
  attr {
    key: "_output_shapes"
    value {
      list {
        shape {
          dim {
            size: 3
          }
        }
      }
    }
  }
  attr {
    key: "dtype"
    value {
      type: DT_INT32
    }
  }
  attr {
    key: "value"
    value {
      tensor {
        dtype: DT_INT32
        tensor_shape {
          dim {
            size: 3
          }
        }
        tensor_content: "\200\001\000\000\000\002\000\000\003\000\000\000"
      }
    }
  }
}
node {
  name: "load_batch/Reshape_3"
  op: "Reshape"
  input: "load_batch/DecodeRaw"
  input: "load_batch/Reshape_3/shape"
  attr {
    key: "T"
    value {
      type: DT_DOUBLE
    }
  }
  attr {
    key: "Tshape"
    value {
      type: DT_INT32
    }
  }
  attr {
    key: "_output_shapes"
    value {
      list {
        shape {
          dim {
            size: 384
          }
          dim {
            size: 512
          }
          dim {
            size: 3
          }
        }
      }
    }
  }
}
node {
  name: "load_batch/DecodeRaw_1"
  op: "DecodeRaw"
  input: "load_batch/Reshape_2"
  attr {
    key: "_output_shapes"
    value {
      list {
        shape {
          dim {
            size: -1
          }
        }
      }
    }
  }
  attr {
    key: "little_endian"
    value {
      b: true
    }
  }
  attr {
    key: "out_type"
    value {
      type: DT_DOUBLE
    }
  }
}
node {
  name: "load_batch/Reshape_4/shape"
  op: "Const"
  attr {
    key: "_output_shapes"
    value {
      list {
        shape {
          dim {
            size: 3
          }
        }
      }
    }
  }
  attr {
    key: "dtype"
    value {
      type: DT_INT32
    }
  }
  attr {
    key: "value"
    value {
      tensor {
        dtype: DT_INT32
        tensor_shape {
          dim {
            size: 3
          }
        }
        tensor_content: "\200\001\000\000\000\002\000\000\003\000\000\000"
      }
    }
  }
}
node {
  name: "load_batch/Reshape_4"
  op: "Reshape"
  input: "load_batch/DecodeRaw_1"
  input: "load_batch/Reshape_4/shape"
  attr {
    key: "T"
    value {
      type: DT_DOUBLE
    }
  }
  attr {
    key: "Tshape"
    value {
      type: DT_INT32
    }
  }
  attr {
    key: "_output_shapes"
    value {
      list {
        shape {
          dim {
            size: 384
          }
          dim {
            size: 512
          }
          dim {
            size: 3
          }
        }
      }
    }
  }
}
node {
  name: "load_batch/DecodeRaw_2"
  op: "DecodeRaw"
  input: "load_batch/Reshape"
  attr {
    key: "_output_shapes"
    value {
      list {
        shape {
          dim {
            size: -1
          }
        }
      }
    }
  }
  attr {
    key: "little_endian"
    value {
      b: true
    }
  }
  attr {
    key: "out_type"
    value {
      type: DT_FLOAT
    }
  }
}
node {
  name: "load_batch/Reshape_5/shape"
  op: "Const"
  attr {
    key: "_output_shapes"
    value {
      list {
        shape {
          dim {
            size: 3
          }
        }
      }
    }
  }
  attr {
    key: "dtype"
    value {
      type: DT_INT32
    }
  }
  attr {
    key: "value"
    value {
      tensor {
        dtype: DT_INT32
        tensor_shape {
          dim {
            size: 3
          }
        }
        tensor_content: "\200\001\000\000\000\002\000\000\002\000\000\000"
      }
    }
  }
}
node {
  name: "load_batch/Reshape_5"
  op: "Reshape"
  input: "load_batch/DecodeRaw_2"
  input: "load_batch/Reshape_5/shape"
  attr {
    key: "T"
    value {
      type: DT_FLOAT
    }
  }
  attr {
    key: "Tshape"
    value {
      type: DT_INT32
    }
  }
  attr {
    key: "_output_shapes"
    value {
      list {
        shape {
          dim {
            size: 384
          }
          dim {
            size: 512
          }
          dim {
            size: 2
          }
        }
      }
    }
  }
}
node {
  name: "load_batch/ToFloat"
  op: "Cast"
  input: "load_batch/Reshape_3"
  attr {
    key: "DstT"
    value {
      type: DT_FLOAT
    }
  }
  attr {
    key: "SrcT"
    value {
      type: DT_DOUBLE
    }
  }
  attr {
    key: "_output_shapes"
    value {
      list {
        shape {
          dim {
            size: 384
          }
          dim {
            size: 512
          }
          dim {
            size: 3
          }
        }
      }
    }
  }
}
node {
  name: "load_batch/ToFloat_1"
  op: "Cast"
  input: "load_batch/Reshape_4"
  attr {
    key: "DstT"
    value {
      type: DT_FLOAT
    }
  }
  attr {
    key: "SrcT"
    value {
      type: DT_DOUBLE
    }
  }
  attr {
    key: "_output_shapes"
    value {
      list {
        shape {
          dim {
            size: 384
          }
          dim {
            size: 512
          }
          dim {
            size: 3
          }
        }
      }
    }
  }
}
node {
  name: "load_batch/ExpandDims/dim"
  op: "Const"
  attr {
    key: "_output_shapes"
    value {
      list {
        shape {
        }
      }
    }
  }
  attr {
    key: "dtype"
    value {
      type: DT_INT32
    }
  }
  attr {
    key: "value"
    value {
      tensor {
        dtype: DT_INT32
        tensor_shape {
        }
        int_val: 0
      }
    }
  }
}
node {
  name: "load_batch/ExpandDims"
  op: "ExpandDims"
  input: "load_batch/ToFloat"
  input: "load_batch/ExpandDims/dim"
  attr {
    key: "T"
    value {
      type: DT_FLOAT
    }
  }
  attr {
    key: "Tdim"
    value {
      type: DT_INT32
    }
  }
  attr {
    key: "_output_shapes"
    value {
      list {
        shape {
          dim {
            size: 1
          }
          dim {
            size: 384
          }
          dim {
            size: 512
          }
          dim {
            size: 3
          }
        }
      }
    }
  }
}
node {
  name: "load_batch/ExpandDims_1/dim"
  op: "Const"
  attr {
    key: "_output_shapes"
    value {
      list {
        shape {
        }
      }
    }
  }
  attr {
    key: "dtype"
    value {
      type: DT_INT32
    }
  }
  attr {
    key: "value"
    value {
      tensor {
        dtype: DT_INT32
        tensor_shape {
        }
        int_val: 0
      }
    }
  }
}
node {
  name: "load_batch/ExpandDims_1"
  op: "ExpandDims"
  input: "load_batch/ToFloat_1"
  input: "load_batch/ExpandDims_1/dim"
  attr {
    key: "T"
    value {
      type: DT_FLOAT
    }
  }
  attr {
    key: "Tdim"
    value {
      type: DT_INT32
    }
  }
  attr {
    key: "_output_shapes"
    value {
      list {
        shape {
          dim {
            size: 1
          }
          dim {
            size: 384
          }
          dim {
            size: 512
          }
          dim {
            size: 3
          }
        }
      }
    }
  }
}
node {
  name: "load_batch/ExpandDims_2/dim"
  op: "Const"
  attr {
    key: "_output_shapes"
    value {
      list {
        shape {
        }
      }
    }
  }
  attr {
    key: "dtype"
    value {
      type: DT_INT32
    }
  }
  attr {
    key: "value"
    value {
      tensor {
        dtype: DT_INT32
        tensor_shape {
        }
        int_val: 0
      }
    }
  }
}
node {
  name: "load_batch/ExpandDims_2"
  op: "ExpandDims"
  input: "load_batch/Reshape_5"
  input: "load_batch/ExpandDims_2/dim"
  attr {
    key: "T"
    value {
      type: DT_FLOAT
    }
  }
  attr {
    key: "Tdim"
    value {
      type: DT_INT32
    }
  }
  attr {
    key: "_output_shapes"
    value {
      list {
        shape {
          dim {
            size: 1
          }
          dim {
            size: 384
          }
          dim {
            size: 512
          }
          dim {
            size: 2
          }
        }
      }
    }
  }
}
node {
  name: "load_batch/DataAugmentation"
  op: "DataAugmentation"
  input: "load_batch/ExpandDims"
  input: "load_batch/ExpandDims_1"
  input: "global_step/read"
  device: "/device:CPU:0"
  attr {
    key: "_output_shapes"
    value {
      list {
        shape {
          dim {
            size: 1
          }
          dim {
            size: 320
          }
          dim {
            size: 448
          }
          dim {
            size: 3
          }
        }
        shape {
          dim {
            size: 1
          }
          dim {
            size: 320
          }
          dim {
            size: 448
          }
          dim {
            size: 3
          }
        }
        shape {
          dim {
            size: 1
          }
          dim {
            size: 6
          }
        }
        shape {
          dim {
            size: 1
          }
          dim {
            size: 6
          }
        }
      }
    }
  }
  attr {
    key: "crop"
    value {
      list {
        i: 320
        i: 448
      }
    }
  }
  attr {
    key: "params_a_coeff_schedule"
    value {
      list {
      }
    }
  }
  attr {
    key: "params_a_exp"
    value {
      list {
        b: false
        b: false
        b: true
        b: true
        b: false
      }
    }
  }
  attr {
    key: "params_a_mean"
    value {
      list {
        f: 0.0
        f: 0.0
        f: 0.2
        f: 0.0
        f: 0.03
      }
    }
  }
  attr {
    key: "params_a_name"
    value {
      list {
        s: "translate"
        s: "rotate"
        s: "zoom"
        s: "squeeze"
        s: "noise"
      }
    }
  }
  attr {
    key: "params_a_prob"
    value {
      list {
        f: 1.0
        f: 1.0
        f: 1.0
        f: 1.0
        f: 1.0
      }
    }
  }
  attr {
    key: "params_a_rand_type"
    value {
      list {
        s: "uniform_bernoulli"
        s: "uniform_bernoulli"
        s: "uniform_bernoulli"
        s: "uniform_bernoulli"
        s: "uniform_bernoulli"
      }
    }
  }
  attr {
    key: "params_a_spread"
    value {
      list {
        f: 0.4
        f: 0.4
        f: 0.4
        f: 0.3
        f: 0.03
      }
    }
  }
  attr {
    key: "params_b_coeff_schedule"
    value {
      list {
      }
    }
  }
  attr {
    key: "params_b_exp"
    value {
      list {
        b: false
        b: false
        b: true
        b: true
        b: false
        b: true
        b: true
      }
    }
  }
  attr {
    key: "params_b_mean"
    value {
      list {
        f: 0.0
        f: 0.0
        f: 0.0
        f: 0.0
        f: 0.0
        f: 0.0
        f: 0.0
      }
    }
  }
  attr {
    key: "params_b_name"
    value {
      list {
        s: "translate"
        s: "rotate"
        s: "zoom"
        s: "gamma"
        s: "brightness"
        s: "contrast"
        s: "color"
      }
    }
  }
  attr {
    key: "params_b_prob"
    value {
      list {
        f: 1.0
        f: 1.0
        f: 1.0
        f: 1.0
        f: 1.0
        f: 1.0
        f: 1.0
      }
    }
  }
  attr {
    key: "params_b_rand_type"
    value {
      list {
        s: "gaussian_bernoulli"
        s: "gaussian_bernoulli"
        s: "gaussian_bernoulli"
        s: "gaussian_bernoulli"
        s: "gaussian_bernoulli"
        s: "gaussian_bernoulli"
        s: "gaussian_bernoulli"
      }
    }
  }
  attr {
    key: "params_b_spread"
    value {
      list {
        f: 0.03
        f: 0.03
        f: 0.03
        f: 0.02
        f: 0.02
        f: 0.02
        f: 0.02
      }
    }
  }
}
node {
  name: "load_batch/Const"
  op: "Const"
  device: "/device:CPU:0"
  attr {
    key: "_output_shapes"
    value {
      list {
        shape {
        }
      }
    }
  }
  attr {
    key: "dtype"
    value {
      type: DT_FLOAT
    }
  }
  attr {
    key: "value"
    value {
      tensor {
        dtype: DT_FLOAT
        tensor_shape {
        }
        float_val: 1.0
      }
    }
  }
}
node {
  name: "load_batch/Const_1"
  op: "Const"
  device: "/device:CPU:0"
  attr {
    key: "_output_shapes"
    value {
      list {
        shape {
        }
      }
    }
  }
  attr {
    key: "dtype"
    value {
      type: DT_FLOAT
    }
  }
  attr {
    key: "value"
    value {
      tensor {
        dtype: DT_FLOAT
        tensor_shape {
        }
        float_val: 0.03
      }
    }
  }
}
node {
  name: "load_batch/mul/x"
  op: "Const"
  device: "/device:CPU:0"
  attr {
    key: "_output_shapes"
    value {
      list {
        shape {
        }
      }
    }
  }
  attr {
    key: "dtype"
    value {
      type: DT_FLOAT
    }
  }
  attr {
    key: "value"
    value {
      tensor {
        dtype: DT_FLOAT
        tensor_shape {
        }
        float_val: 0.03
      }
    }
  }
}
node {
  name: "load_batch/mul"
  op: "Mul"
  input: "load_batch/mul/x"
  input: "load_batch/Const"
  device: "/device:CPU:0"
  attr {
    key: "T"
    value {
      type: DT_FLOAT
    }
  }
  attr {
    key: "_output_shapes"
    value {
      list {
        shape {
        }
      }
    }
  }
}
node {
  name: "load_batch/Bernoulli/probs"
  op: "Const"
  device: "/device:CPU:0"
  attr {
    key: "_output_shapes"
    value {
      list {
        shape {
        }
      }
    }
  }
  attr {
    key: "dtype"
    value {
      type: DT_FLOAT
    }
  }
  attr {
    key: "value"
    value {
      tensor {
        dtype: DT_FLOAT
        tensor_shape {
        }
        float_val: 1.0
      }
    }
  }
}
node {
  name: "load_batch/Bernoulli/logits/Log"
  op: "Log"
  input: "load_batch/Bernoulli/probs"
  device: "/device:CPU:0"
  attr {
    key: "T"
    value {
      type: DT_FLOAT
    }
  }
  attr {
    key: "_output_shapes"
    value {
      list {
        shape {
        }
      }
    }
  }
}
node {
  name: "load_batch/Bernoulli/logits/mul/x"
  op: "Const"
  device: "/device:CPU:0"
  attr {
    key: "_output_shapes"
    value {
      list {
        shape {
        }
      }
    }
  }
  attr {
    key: "dtype"
    value {
      type: DT_FLOAT
    }
  }
  attr {
    key: "value"
    value {
      tensor {
        dtype: DT_FLOAT
        tensor_shape {
        }
        float_val: -1.0
      }
    }
  }
}
node {
  name: "load_batch/Bernoulli/logits/mul"
  op: "Mul"
  input: "load_batch/Bernoulli/logits/mul/x"
  input: "load_batch/Bernoulli/probs"
  device: "/device:CPU:0"
  attr {
    key: "T"
    value {
      type: DT_FLOAT
    }
  }
  attr {
    key: "_output_shapes"
    value {
      list {
        shape {
        }
      }
    }
  }
}
node {
  name: "load_batch/Bernoulli/logits/Log1p"
  op: "Log1p"
  input: "load_batch/Bernoulli/logits/mul"
  device: "/device:CPU:0"
  attr {
    key: "T"
    value {
      type: DT_FLOAT
    }
  }
  attr {
    key: "_output_shapes"
    value {
      list {
        shape {
        }
      }
    }
  }
}
node {
  name: "load_batch/Bernoulli/logits/sub"
  op: "Sub"
  input: "load_batch/Bernoulli/logits/Log"
  input: "load_batch/Bernoulli/logits/Log1p"
  device: "/device:CPU:0"
  attr {
    key: "T"
    value {
      type: DT_FLOAT
    }
  }
  attr {
    key: "_output_shapes"
    value {
      list {
        shape {
        }
      }
    }
  }
}
node {
  name: "load_batch/Bernoulli/sample/sample_shape"
  op: "Const"
  device: "/device:CPU:0"
  attr {
    key: "_output_shapes"
    value {
      list {
        shape {
          dim {
          }
        }
      }
    }
  }
  attr {
    key: "dtype"
    value {
      type: DT_INT32
    }
  }
  attr {
    key: "value"
    value {
      tensor {
        dtype: DT_INT32
        tensor_shape {
          dim {
          }
        }
      }
    }
  }
}
node {
  name: "load_batch/Bernoulli/batch_shape_tensor/batch_shape"
  op: "Const"
  device: "/device:CPU:0"
  attr {
    key: "_output_shapes"
    value {
      list {
        shape {
          dim {
          }
        }
      }
    }
  }
  attr {
    key: "dtype"
    value {
      type: DT_INT32
    }
  }
  attr {
    key: "value"
    value {
      tensor {
        dtype: DT_INT32
        tensor_shape {
          dim {
          }
        }
      }
    }
  }
}
node {
  name: "load_batch/Bernoulli/sample/concat/values_0"
  op: "Const"
  device: "/device:CPU:0"
  attr {
    key: "_output_shapes"
    value {
      list {
        shape {
          dim {
            size: 1
          }
        }
      }
    }
  }
  attr {
    key: "dtype"
    value {
      type: DT_INT32
    }
  }
  attr {
    key: "value"
    value {
      tensor {
        dtype: DT_INT32
        tensor_shape {
          dim {
            size: 1
          }
        }
        int_val: 1
      }
    }
  }
}
node {
  name: "load_batch/Bernoulli/sample/concat/axis"
  op: "Const"
  device: "/device:CPU:0"
  attr {
    key: "_output_shapes"
    value {
      list {
        shape {
        }
      }
    }
  }
  attr {
    key: "dtype"
    value {
      type: DT_INT32
    }
  }
  attr {
    key: "value"
    value {
      tensor {
        dtype: DT_INT32
        tensor_shape {
        }
        int_val: 0
      }
    }
  }
}
node {
  name: "load_batch/Bernoulli/sample/concat"
  op: "ConcatV2"
  input: "load_batch/Bernoulli/sample/concat/values_0"
  input: "load_batch/Bernoulli/batch_shape_tensor/batch_shape"
  input: "load_batch/Bernoulli/sample/concat/axis"
  device: "/device:CPU:0"
  attr {
    key: "N"
    value {
      i: 2
    }
  }
  attr {
    key: "T"
    value {
      type: DT_INT32
    }
  }
  attr {
    key: "Tidx"
    value {
      type: DT_INT32
    }
  }
  attr {
    key: "_output_shapes"
    value {
      list {
        shape {
          dim {
            size: 1
          }
        }
      }
    }
  }
}
node {
  name: "load_batch/Bernoulli/sample/random_uniform/min"
  op: "Const"
  device: "/device:CPU:0"
  attr {
    key: "_output_shapes"
    value {
      list {
        shape {
        }
      }
    }
  }
  attr {
    key: "dtype"
    value {
      type: DT_FLOAT
    }
  }
  attr {
    key: "value"
    value {
      tensor {
        dtype: DT_FLOAT
        tensor_shape {
        }
        float_val: 0.0
      }
    }
  }
}
node {
  name: "load_batch/Bernoulli/sample/random_uniform/max"
  op: "Const"
  device: "/device:CPU:0"
  attr {
    key: "_output_shapes"
    value {
      list {
        shape {
        }
      }
    }
  }
  attr {
    key: "dtype"
    value {
      type: DT_FLOAT
    }
  }
  attr {
    key: "value"
    value {
      tensor {
        dtype: DT_FLOAT
        tensor_shape {
        }
        float_val: 1.0
      }
    }
  }
}
node {
  name: "load_batch/Bernoulli/sample/random_uniform/RandomUniform"
  op: "RandomUniform"
  input: "load_batch/Bernoulli/sample/concat"
  device: "/device:CPU:0"
  attr {
    key: "T"
    value {
      type: DT_INT32
    }
  }
  attr {
    key: "_output_shapes"
    value {
      list {
        shape {
          dim {
            size: 1
          }
        }
      }
    }
  }
  attr {
    key: "dtype"
    value {
      type: DT_FLOAT
    }
  }
  attr {
    key: "seed"
    value {
      i: 0
    }
  }
  attr {
    key: "seed2"
    value {
      i: 0
    }
  }
}
node {
  name: "load_batch/Bernoulli/sample/random_uniform/sub"
  op: "Sub"
  input: "load_batch/Bernoulli/sample/random_uniform/max"
  input: "load_batch/Bernoulli/sample/random_uniform/min"
  device: "/device:CPU:0"
  attr {
    key: "T"
    value {
      type: DT_FLOAT
    }
  }
  attr {
    key: "_output_shapes"
    value {
      list {
        shape {
        }
      }
    }
  }
}
node {
  name: "load_batch/Bernoulli/sample/random_uniform/mul"
  op: "Mul"
  input: "load_batch/Bernoulli/sample/random_uniform/RandomUniform"
  input: "load_batch/Bernoulli/sample/random_uniform/sub"
  device: "/device:CPU:0"
  attr {
    key: "T"
    value {
      type: DT_FLOAT
    }
  }
  attr {
    key: "_output_shapes"
    value {
      list {
        shape {
          dim {
            size: 1
          }
        }
      }
    }
  }
}
node {
  name: "load_batch/Bernoulli/sample/random_uniform"
  op: "Add"
  input: "load_batch/Bernoulli/sample/random_uniform/mul"
  input: "load_batch/Bernoulli/sample/random_uniform/min"
  device: "/device:CPU:0"
  attr {
    key: "T"
    value {
      type: DT_FLOAT
    }
  }
  attr {
    key: "_output_shapes"
    value {
      list {
        shape {
          dim {
            size: 1
          }
        }
      }
    }
  }
}
node {
  name: "load_batch/Bernoulli/sample/Less"
  op: "Less"
  input: "load_batch/Bernoulli/sample/random_uniform"
  input: "load_batch/Bernoulli/probs"
  device: "/device:CPU:0"
  attr {
    key: "T"
    value {
      type: DT_FLOAT
    }
  }
  attr {
    key: "_output_shapes"
    value {
      list {
        shape {
          dim {
            size: 1
          }
        }
      }
    }
  }
}
node {
  name: "load_batch/Bernoulli/sample/Cast"
  op: "Cast"
  input: "load_batch/Bernoulli/sample/Less"
  device: "/device:CPU:0"
  attr {
    key: "DstT"
    value {
      type: DT_INT32
    }
  }
  attr {
    key: "SrcT"
    value {
      type: DT_BOOL
    }
  }
  attr {
    key: "_output_shapes"
    value {
      list {
        shape {
          dim {
            size: 1
          }
        }
      }
    }
  }
}
node {
  name: "load_batch/Bernoulli/sample/Shape"
  op: "Const"
  device: "/device:CPU:0"
  attr {
    key: "_output_shapes"
    value {
      list {
        shape {
          dim {
            size: 1
          }
        }
      }
    }
  }
  attr {
    key: "dtype"
    value {
      type: DT_INT32
    }
  }
  attr {
    key: "value"
    value {
      tensor {
        dtype: DT_INT32
        tensor_shape {
          dim {
            size: 1
          }
        }
        int_val: 1
      }
    }
  }
}
node {
  name: "load_batch/Bernoulli/sample/strided_slice/stack"
  op: "Const"
  device: "/device:CPU:0"
  attr {
    key: "_output_shapes"
    value {
      list {
        shape {
          dim {
            size: 1
          }
        }
      }
    }
  }
  attr {
    key: "dtype"
    value {
      type: DT_INT32
    }
  }
  attr {
    key: "value"
    value {
      tensor {
        dtype: DT_INT32
        tensor_shape {
          dim {
            size: 1
          }
        }
        int_val: 1
      }
    }
  }
}
node {
  name: "load_batch/Bernoulli/sample/strided_slice/stack_1"
  op: "Const"
  device: "/device:CPU:0"
  attr {
    key: "_output_shapes"
    value {
      list {
        shape {
          dim {
            size: 1
          }
        }
      }
    }
  }
  attr {
    key: "dtype"
    value {
      type: DT_INT32
    }
  }
  attr {
    key: "value"
    value {
      tensor {
        dtype: DT_INT32
        tensor_shape {
          dim {
            size: 1
          }
        }
        int_val: 0
      }
    }
  }
}
node {
  name: "load_batch/Bernoulli/sample/strided_slice/stack_2"
  op: "Const"
  device: "/device:CPU:0"
  attr {
    key: "_output_shapes"
    value {
      list {
        shape {
          dim {
            size: 1
          }
        }
      }
    }
  }
  attr {
    key: "dtype"
    value {
      type: DT_INT32
    }
  }
  attr {
    key: "value"
    value {
      tensor {
        dtype: DT_INT32
        tensor_shape {
          dim {
            size: 1
          }
        }
        int_val: 1
      }
    }
  }
}
node {
  name: "load_batch/Bernoulli/sample/strided_slice"
  op: "StridedSlice"
  input: "load_batch/Bernoulli/sample/Shape"
  input: "load_batch/Bernoulli/sample/strided_slice/stack"
  input: "load_batch/Bernoulli/sample/strided_slice/stack_1"
  input: "load_batch/Bernoulli/sample/strided_slice/stack_2"
  device: "/device:CPU:0"
  attr {
    key: "Index"
    value {
      type: DT_INT32
    }
  }
  attr {
    key: "T"
    value {
      type: DT_INT32
    }
  }
  attr {
    key: "_output_shapes"
    value {
      list {
        shape {
          dim {
          }
        }
      }
    }
  }
  attr {
    key: "begin_mask"
    value {
      i: 0
    }
  }
  attr {
    key: "ellipsis_mask"
    value {
      i: 0
    }
  }
  attr {
    key: "end_mask"
    value {
      i: 1
    }
  }
  attr {
    key: "new_axis_mask"
    value {
      i: 0
    }
  }
  attr {
    key: "shrink_axis_mask"
    value {
      i: 0
    }
  }
}
node {
  name: "load_batch/Bernoulli/sample/concat_1/axis"
  op: "Const"
  device: "/device:CPU:0"
  attr {
    key: "_output_shapes"
    value {
      list {
        shape {
        }
      }
    }
  }
  attr {
    key: "dtype"
    value {
      type: DT_INT32
    }
  }
  attr {
    key: "value"
    value {
      tensor {
        dtype: DT_INT32
        tensor_shape {
        }
        int_val: 0
      }
    }
  }
}
node {
  name: "load_batch/Bernoulli/sample/concat_1"
  op: "ConcatV2"
  input: "load_batch/Bernoulli/sample/sample_shape"
  input: "load_batch/Bernoulli/sample/strided_slice"
  input: "load_batch/Bernoulli/sample/concat_1/axis"
  device: "/device:CPU:0"
  attr {
    key: "N"
    value {
      i: 2
    }
  }
  attr {
    key: "T"
    value {
      type: DT_INT32
    }
  }
  attr {
    key: "Tidx"
    value {
      type: DT_INT32
    }
  }
  attr {
    key: "_output_shapes"
    value {
      list {
        shape {
          dim {
          }
        }
      }
    }
  }
}
node {
  name: "load_batch/Bernoulli/sample/Reshape"
  op: "Reshape"
  input: "load_batch/Bernoulli/sample/Cast"
  input: "load_batch/Bernoulli/sample/concat_1"
  device: "/device:CPU:0"
  attr {
    key: "T"
    value {
      type: DT_INT32
    }
  }
  attr {
    key: "Tshape"
    value {
      type: DT_INT32
    }
  }
  attr {
    key: "_output_shapes"
    value {
      list {
        shape {
        }
      }
    }
  }
}
node {
  name: "load_batch/Greater/y"
  op: "Const"
  device: "/device:CPU:0"
  attr {
    key: "_output_shapes"
    value {
      list {
        shape {
        }
      }
    }
  }
  attr {
    key: "dtype"
    value {
      type: DT_FLOAT
    }
  }
  attr {
    key: "value"
    value {
      tensor {
        dtype: DT_FLOAT
        tensor_shape {
        }
        float_val: 0.0
      }
    }
  }
}
node {
  name: "load_batch/Greater"
  op: "Greater"
  input: "load_batch/mul"
  input: "load_batch/Greater/y"
  device: "/device:CPU:0"
  attr {
    key: "T"
    value {
      type: DT_FLOAT
    }
  }
  attr {
    key: "_output_shapes"
    value {
      list {
        shape {
        }
      }
    }
  }
}
node {
  name: "load_batch/cond/Switch"
  op: "Switch"
  input: "load_batch/Greater"
  input: "load_batch/Greater"
  device: "/device:CPU:0"
  attr {
    key: "T"
    value {
      type: DT_BOOL
    }
  }
  attr {
    key: "_output_shapes"
    value {
      list {
        shape {
        }
        shape {
        }
      }
    }
  }
}
node {
  name: "load_batch/cond/switch_t"
  op: "Identity"
  input: "load_batch/cond/Switch:1"
  device: "/device:CPU:0"
  attr {
    key: "T"
    value {
      type: DT_BOOL
    }
  }
  attr {
    key: "_output_shapes"
    value {
      list {
        shape {
        }
      }
    }
  }
}
node {
  name: "load_batch/cond/switch_f"
  op: "Identity"
  input: "load_batch/cond/Switch"
  device: "/device:CPU:0"
  attr {
    key: "T"
    value {
      type: DT_BOOL
    }
  }
  attr {
    key: "_output_shapes"
    value {
      list {
        shape {
        }
      }
    }
  }
}
node {
  name: "load_batch/cond/pred_id"
  op: "Identity"
  input: "load_batch/Greater"
  device: "/device:CPU:0"
  attr {
    key: "T"
    value {
      type: DT_BOOL
    }
  }
  attr {
    key: "_output_shapes"
    value {
      list {
        shape {
        }
      }
    }
  }
}
node {
  name: "load_batch/cond/sub"
  op: "Sub"
  input: "load_batch/cond/sub/Switch:1"
  input: "load_batch/cond/sub/Switch_1:1"
  device: "/device:CPU:0"
  attr {
    key: "T"
    value {
      type: DT_FLOAT
    }
  }
  attr {
    key: "_output_shapes"
    value {
      list {
        shape {
        }
      }
    }
  }
}
node {
  name: "load_batch/cond/sub/Switch"
  op: "Switch"
  input: "load_batch/Const_1"
  input: "load_batch/cond/pred_id"
  device: "/device:CPU:0"
  attr {
    key: "T"
    value {
      type: DT_FLOAT
    }
  }
  attr {
    key: "_class"
    value {
      list {
        s: "loc:@load_batch/Const_1"
      }
    }
  }
  attr {
    key: "_output_shapes"
    value {
      list {
        shape {
        }
        shape {
        }
      }
    }
  }
}
node {
  name: "load_batch/cond/sub/Switch_1"
  op: "Switch"
  input: "load_batch/mul"
  input: "load_batch/cond/pred_id"
  device: "/device:CPU:0"
  attr {
    key: "T"
    value {
      type: DT_FLOAT
    }
  }
  attr {
    key: "_class"
    value {
      list {
        s: "loc:@load_batch/mul"
      }
    }
  }
  attr {
    key: "_output_shapes"
    value {
      list {
        shape {
        }
        shape {
        }
      }
    }
  }
}
node {
  name: "load_batch/cond/add"
  op: "Add"
  input: "load_batch/cond/sub/Switch:1"
  input: "load_batch/cond/sub/Switch_1:1"
  device: "/device:CPU:0"
  attr {
    key: "T"
    value {
      type: DT_FLOAT
    }
  }
  attr {
    key: "_output_shapes"
    value {
      list {
        shape {
        }
      }
    }
  }
}
node {
  name: "load_batch/cond/random_uniform/shape"
  op: "Const"
  input: "^load_batch/cond/switch_t"
  device: "/device:CPU:0"
  attr {
    key: "_output_shapes"
    value {
      list {
        shape {
          dim {
          }
        }
      }
    }
  }
  attr {
    key: "dtype"
    value {
      type: DT_INT32
    }
  }
  attr {
    key: "value"
    value {
      tensor {
        dtype: DT_INT32
        tensor_shape {
          dim {
          }
        }
      }
    }
  }
}
node {
  name: "load_batch/cond/random_uniform/RandomUniform"
  op: "RandomUniform"
  input: "load_batch/cond/random_uniform/shape"
  device: "/device:CPU:0"
  attr {
    key: "T"
    value {
      type: DT_INT32
    }
  }
  attr {
    key: "_output_shapes"
    value {
      list {
        shape {
        }
      }
    }
  }
  attr {
    key: "dtype"
    value {
      type: DT_FLOAT
    }
  }
  attr {
    key: "seed"
    value {
      i: 0
    }
  }
  attr {
    key: "seed2"
    value {
      i: 0
    }
  }
}
node {
  name: "load_batch/cond/random_uniform/sub"
  op: "Sub"
  input: "load_batch/cond/add"
  input: "load_batch/cond/sub"
  device: "/device:CPU:0"
  attr {
    key: "T"
    value {
      type: DT_FLOAT
    }
  }
  attr {
    key: "_output_shapes"
    value {
      list {
        shape {
        }
      }
    }
  }
}
node {
  name: "load_batch/cond/random_uniform/mul"
  op: "Mul"
  input: "load_batch/cond/random_uniform/RandomUniform"
  input: "load_batch/cond/random_uniform/sub"
  device: "/device:CPU:0"
  attr {
    key: "T"
    value {
      type: DT_FLOAT
    }
  }
  attr {
    key: "_output_shapes"
    value {
      list {
        shape {
        }
      }
    }
  }
}
node {
  name: "load_batch/cond/random_uniform"
  op: "Add"
  input: "load_batch/cond/random_uniform/mul"
  input: "load_batch/cond/sub"
  device: "/device:CPU:0"
  attr {
    key: "T"
    value {
      type: DT_FLOAT
    }
  }
  attr {
    key: "_output_shapes"
    value {
      list {
        shape {
        }
      }
    }
  }
}
node {
  name: "load_batch/cond/Switch_1"
  op: "Switch"
  input: "load_batch/Const_1"
  input: "load_batch/cond/pred_id"
  device: "/device:CPU:0"
  attr {
    key: "T"
    value {
      type: DT_FLOAT
    }
  }
  attr {
    key: "_class"
    value {
      list {
        s: "loc:@load_batch/Const_1"
      }
    }
  }
  attr {
    key: "_output_shapes"
    value {
      list {
        shape {
        }
        shape {
        }
      }
    }
  }
}
node {
  name: "load_batch/cond/Merge"
  op: "Merge"
  input: "load_batch/cond/Switch_1"
  input: "load_batch/cond/random_uniform"
  device: "/device:CPU:0"
  attr {
    key: "N"
    value {
      i: 2
    }
  }
  attr {
    key: "T"
    value {
      type: DT_FLOAT
    }
  }
  attr {
    key: "_output_shapes"
    value {
      list {
        shape {
        }
        shape {
        }
      }
    }
  }
}
node {
  name: "load_batch/Shape"
  op: "Const"
  device: "/device:CPU:0"
  attr {
    key: "_output_shapes"
    value {
      list {
        shape {
          dim {
            size: 4
          }
        }
      }
    }
  }
  attr {
    key: "dtype"
    value {
      type: DT_INT32
    }
  }
  attr {
    key: "value"
    value {
      tensor {
        dtype: DT_INT32
        tensor_shape {
          dim {
            size: 4
          }
        }
        tensor_content: "\001\000\000\000@\001\000\000\300\001\000\000\003\000\000\000"
      }
    }
  }
}
node {
  name: "load_batch/random_normal/mean"
  op: "Const"
  device: "/device:CPU:0"
  attr {
    key: "_output_shapes"
    value {
      list {
        shape {
        }
      }
    }
  }
  attr {
    key: "dtype"
    value {
      type: DT_FLOAT
    }
  }
  attr {
    key: "value"
    value {
      tensor {
        dtype: DT_FLOAT
        tensor_shape {
        }
        float_val: 0.0
      }
    }
  }
}
node {
  name: "load_batch/random_normal/RandomStandardNormal"
  op: "RandomStandardNormal"
  input: "load_batch/Shape"
  device: "/device:CPU:0"
  attr {
    key: "T"
    value {
      type: DT_INT32
    }
  }
  attr {
    key: "_output_shapes"
    value {
      list {
        shape {
          dim {
            size: 1
          }
          dim {
            size: 320
          }
          dim {
            size: 448
          }
          dim {
            size: 3
          }
        }
      }
    }
  }
  attr {
    key: "dtype"
    value {
      type: DT_FLOAT
    }
  }
  attr {
    key: "seed"
    value {
      i: 0
    }
  }
  attr {
    key: "seed2"
    value {
      i: 0
    }
  }
}
node {
  name: "load_batch/random_normal/mul"
  op: "Mul"
  input: "load_batch/random_normal/RandomStandardNormal"
  input: "load_batch/cond/Merge"
  device: "/device:CPU:0"
  attr {
    key: "T"
    value {
      type: DT_FLOAT
    }
  }
  attr {
    key: "_output_shapes"
    value {
      list {
        shape {
          dim {
            size: 1
          }
          dim {
            size: 320
          }
          dim {
            size: 448
          }
          dim {
            size: 3
          }
        }
      }
    }
  }
}
node {
  name: "load_batch/random_normal"
  op: "Add"
  input: "load_batch/random_normal/mul"
  input: "load_batch/random_normal/mean"
  device: "/device:CPU:0"
  attr {
    key: "T"
    value {
      type: DT_FLOAT
    }
  }
  attr {
    key: "_output_shapes"
    value {
      list {
        shape {
          dim {
            size: 1
          }
          dim {
            size: 320
          }
          dim {
            size: 448
          }
          dim {
            size: 3
          }
        }
      }
    }
  }
}
node {
  name: "load_batch/add"
  op: "Add"
  input: "load_batch/DataAugmentation"
  input: "load_batch/random_normal"
  device: "/device:CPU:0"
  attr {
    key: "T"
    value {
      type: DT_FLOAT
    }
  }
  attr {
    key: "_output_shapes"
    value {
      list {
        shape {
          dim {
            size: 1
          }
          dim {
            size: 320
          }
          dim {
            size: 448
          }
          dim {
            size: 3
          }
        }
      }
    }
  }
}
node {
  name: "load_batch/clip_by_value/Minimum/y"
  op: "Const"
  device: "/device:CPU:0"
  attr {
    key: "_output_shapes"
    value {
      list {
        shape {
        }
      }
    }
  }
  attr {
    key: "dtype"
    value {
      type: DT_FLOAT
    }
  }
  attr {
    key: "value"
    value {
      tensor {
        dtype: DT_FLOAT
        tensor_shape {
        }
        float_val: 1.0
      }
    }
  }
}
node {
  name: "load_batch/clip_by_value/Minimum"
  op: "Minimum"
  input: "load_batch/add"
  input: "load_batch/clip_by_value/Minimum/y"
  device: "/device:CPU:0"
  attr {
    key: "T"
    value {
      type: DT_FLOAT
    }
  }
  attr {
    key: "_output_shapes"
    value {
      list {
        shape {
          dim {
            size: 1
          }
          dim {
            size: 320
          }
          dim {
            size: 448
          }
          dim {
            size: 3
          }
        }
      }
    }
  }
}
node {
  name: "load_batch/clip_by_value/y"
  op: "Const"
  device: "/device:CPU:0"
  attr {
    key: "_output_shapes"
    value {
      list {
        shape {
        }
      }
    }
  }
  attr {
    key: "dtype"
    value {
      type: DT_FLOAT
    }
  }
  attr {
    key: "value"
    value {
      tensor {
        dtype: DT_FLOAT
        tensor_shape {
        }
        float_val: 0.0
      }
    }
  }
}
node {
  name: "load_batch/clip_by_value"
  op: "Maximum"
  input: "load_batch/clip_by_value/Minimum"
  input: "load_batch/clip_by_value/y"
  device: "/device:CPU:0"
  attr {
    key: "T"
    value {
      type: DT_FLOAT
    }
  }
  attr {
    key: "_output_shapes"
    value {
      list {
        shape {
          dim {
            size: 1
          }
          dim {
            size: 320
          }
          dim {
            size: 448
          }
          dim {
            size: 3
          }
        }
      }
    }
  }
}
node {
  name: "load_batch/Shape_1"
  op: "Const"
  device: "/device:CPU:0"
  attr {
    key: "_output_shapes"
    value {
      list {
        shape {
          dim {
            size: 4
          }
        }
      }
    }
  }
  attr {
    key: "dtype"
    value {
      type: DT_INT32
    }
  }
  attr {
    key: "value"
    value {
      tensor {
        dtype: DT_INT32
        tensor_shape {
          dim {
            size: 4
          }
        }
        tensor_content: "\001\000\000\000@\001\000\000\300\001\000\000\003\000\000\000"
      }
    }
  }
}
node {
  name: "load_batch/random_normal_1/mean"
  op: "Const"
  device: "/device:CPU:0"
  attr {
    key: "_output_shapes"
    value {
      list {
        shape {
        }
      }
    }
  }
  attr {
    key: "dtype"
    value {
      type: DT_FLOAT
    }
  }
  attr {
    key: "value"
    value {
      tensor {
        dtype: DT_FLOAT
        tensor_shape {
        }
        float_val: 0.0
      }
    }
  }
}
node {
  name: "load_batch/random_normal_1/RandomStandardNormal"
  op: "RandomStandardNormal"
  input: "load_batch/Shape_1"
  device: "/device:CPU:0"
  attr {
    key: "T"
    value {
      type: DT_INT32
    }
  }
  attr {
    key: "_output_shapes"
    value {
      list {
        shape {
          dim {
            size: 1
          }
          dim {
            size: 320
          }
          dim {
            size: 448
          }
          dim {
            size: 3
          }
        }
      }
    }
  }
  attr {
    key: "dtype"
    value {
      type: DT_FLOAT
    }
  }
  attr {
    key: "seed"
    value {
      i: 0
    }
  }
  attr {
    key: "seed2"
    value {
      i: 0
    }
  }
}
node {
  name: "load_batch/random_normal_1/mul"
  op: "Mul"
  input: "load_batch/random_normal_1/RandomStandardNormal"
  input: "load_batch/cond/Merge"
  device: "/device:CPU:0"
  attr {
    key: "T"
    value {
      type: DT_FLOAT
    }
  }
  attr {
    key: "_output_shapes"
    value {
      list {
        shape {
          dim {
            size: 1
          }
          dim {
            size: 320
          }
          dim {
            size: 448
          }
          dim {
            size: 3
          }
        }
      }
    }
  }
}
node {
  name: "load_batch/random_normal_1"
  op: "Add"
  input: "load_batch/random_normal_1/mul"
  input: "load_batch/random_normal_1/mean"
  device: "/device:CPU:0"
  attr {
    key: "T"
    value {
      type: DT_FLOAT
    }
  }
  attr {
    key: "_output_shapes"
    value {
      list {
        shape {
          dim {
            size: 1
          }
          dim {
            size: 320
          }
          dim {
            size: 448
          }
          dim {
            size: 3
          }
        }
      }
    }
  }
}
node {
  name: "load_batch/add_1"
  op: "Add"
  input: "load_batch/DataAugmentation:1"
  input: "load_batch/random_normal_1"
  device: "/device:CPU:0"
  attr {
    key: "T"
    value {
      type: DT_FLOAT
    }
  }
  attr {
    key: "_output_shapes"
    value {
      list {
        shape {
          dim {
            size: 1
          }
          dim {
            size: 320
          }
          dim {
            size: 448
          }
          dim {
            size: 3
          }
        }
      }
    }
  }
}
node {
  name: "load_batch/clip_by_value_1/Minimum/y"
  op: "Const"
  device: "/device:CPU:0"
  attr {
    key: "_output_shapes"
    value {
      list {
        shape {
        }
      }
    }
  }
  attr {
    key: "dtype"
    value {
      type: DT_FLOAT
    }
  }
  attr {
    key: "value"
    value {
      tensor {
        dtype: DT_FLOAT
        tensor_shape {
        }
        float_val: 1.0
      }
    }
  }
}
node {
  name: "load_batch/clip_by_value_1/Minimum"
  op: "Minimum"
  input: "load_batch/add_1"
  input: "load_batch/clip_by_value_1/Minimum/y"
  device: "/device:CPU:0"
  attr {
    key: "T"
    value {
      type: DT_FLOAT
    }
  }
  attr {
    key: "_output_shapes"
    value {
      list {
        shape {
          dim {
            size: 1
          }
          dim {
            size: 320
          }
          dim {
            size: 448
          }
          dim {
            size: 3
          }
        }
      }
    }
  }
}
node {
  name: "load_batch/clip_by_value_1/y"
  op: "Const"
  device: "/device:CPU:0"
  attr {
    key: "_output_shapes"
    value {
      list {
        shape {
        }
      }
    }
  }
  attr {
    key: "dtype"
    value {
      type: DT_FLOAT
    }
  }
  attr {
    key: "value"
    value {
      tensor {
        dtype: DT_FLOAT
        tensor_shape {
        }
        float_val: 0.0
      }
    }
  }
}
node {
  name: "load_batch/clip_by_value_1"
  op: "Maximum"
  input: "load_batch/clip_by_value_1/Minimum"
  input: "load_batch/clip_by_value_1/y"
  device: "/device:CPU:0"
  attr {
    key: "T"
    value {
      type: DT_FLOAT
    }
  }
  attr {
    key: "_output_shapes"
    value {
      list {
        shape {
          dim {
            size: 1
          }
          dim {
            size: 320
          }
          dim {
            size: 448
          }
          dim {
            size: 3
          }
        }
      }
    }
  }
}
node {
  name: "load_batch/FlowAugmentation"
  op: "FlowAugmentation"
  input: "load_batch/ExpandDims_2"
  input: "load_batch/DataAugmentation:2"
  input: "load_batch/DataAugmentation:3"
  device: "/device:CPU:0"
  attr {
    key: "_output_shapes"
    value {
      list {
        shape {
          dim {
            size: 1
          }
          dim {
            size: 320
          }
          dim {
            size: 448
          }
          dim {
            size: 2
          }
        }
      }
    }
  }
  attr {
    key: "crop"
    value {
      list {
        i: 320
        i: 448
      }
    }
  }
}
node {
  name: "load_batch/batch/Const"
  op: "Const"
  device: "/device:CPU:0"
  attr {
    key: "_output_shapes"
    value {
      list {
        shape {
        }
      }
    }
  }
  attr {
    key: "dtype"
    value {
      type: DT_BOOL
    }
  }
  attr {
    key: "value"
    value {
      tensor {
        dtype: DT_BOOL
        tensor_shape {
        }
        bool_val: true
      }
    }
  }
}
node {
  name: "load_batch/batch/fifo_queue"
  op: "FIFOQueueV2"
  device: "/device:CPU:0"
  attr {
    key: "_output_shapes"
    value {
      list {
        shape {
        }
      }
    }
  }
  attr {
    key: "capacity"
    value {
      i: 32
    }
  }
  attr {
    key: "component_types"
    value {
      list {
        type: DT_FLOAT
        type: DT_FLOAT
        type: DT_FLOAT
      }
    }
  }
  attr {
    key: "container"
    value {
      s: ""
    }
  }
  attr {
    key: "shapes"
    value {
      list {
        shape {
          dim {
            size: 320
          }
          dim {
            size: 448
          }
          dim {
            size: 3
          }
        }
        shape {
          dim {
            size: 320
          }
          dim {
            size: 448
          }
          dim {
            size: 3
          }
        }
        shape {
          dim {
            size: 320
          }
          dim {
            size: 448
          }
          dim {
            size: 2
          }
        }
      }
    }
  }
  attr {
    key: "shared_name"
    value {
      s: ""
    }
  }
}
node {
  name: "load_batch/batch/fifo_queue_EnqueueMany"
  op: "QueueEnqueueManyV2"
  input: "load_batch/batch/fifo_queue"
  input: "load_batch/clip_by_value"
  input: "load_batch/clip_by_value_1"
  input: "load_batch/FlowAugmentation"
  device: "/device:CPU:0"
  attr {
    key: "Tcomponents"
    value {
      list {
        type: DT_FLOAT
        type: DT_FLOAT
        type: DT_FLOAT
      }
    }
  }
  attr {
    key: "timeout_ms"
    value {
      i: -1
    }
  }
}
node {
  name: "load_batch/batch/fifo_queue_Close"
  op: "QueueCloseV2"
  input: "load_batch/batch/fifo_queue"
  device: "/device:CPU:0"
  attr {
    key: "cancel_pending_enqueues"
    value {
      b: false
    }
  }
}
node {
  name: "load_batch/batch/fifo_queue_Close_1"
  op: "QueueCloseV2"
  input: "load_batch/batch/fifo_queue"
  device: "/device:CPU:0"
  attr {
    key: "cancel_pending_enqueues"
    value {
      b: true
    }
  }
}
node {
  name: "load_batch/batch/fifo_queue_Size"
  op: "QueueSizeV2"
  input: "load_batch/batch/fifo_queue"
  device: "/device:CPU:0"
  attr {
    key: "_output_shapes"
    value {
      list {
        shape {
        }
      }
    }
  }
}
node {
  name: "load_batch/batch/ToFloat"
  op: "Cast"
  input: "load_batch/batch/fifo_queue_Size"
  device: "/device:CPU:0"
  attr {
    key: "DstT"
    value {
      type: DT_FLOAT
    }
  }
  attr {
    key: "SrcT"
    value {
      type: DT_INT32
    }
  }
  attr {
    key: "_output_shapes"
    value {
      list {
        shape {
        }
      }
    }
  }
}
node {
  name: "load_batch/batch/mul/y"
  op: "Const"
  device: "/device:CPU:0"
  attr {
    key: "_output_shapes"
    value {
      list {
        shape {
        }
      }
    }
  }
  attr {
    key: "dtype"
    value {
      type: DT_FLOAT
    }
  }
  attr {
    key: "value"
    value {
      tensor {
        dtype: DT_FLOAT
        tensor_shape {
        }
        float_val: 0.03125
      }
    }
  }
}
node {
  name: "load_batch/batch/mul"
  op: "Mul"
  input: "load_batch/batch/ToFloat"
  input: "load_batch/batch/mul/y"
  device: "/device:CPU:0"
  attr {
    key: "T"
    value {
      type: DT_FLOAT
    }
  }
  attr {
    key: "_output_shapes"
    value {
      list {
        shape {
        }
      }
    }
  }
}
node {
  name: "load_batch/batch/fraction_of_32_full/tags"
  op: "Const"
  device: "/device:CPU:0"
  attr {
    key: "_output_shapes"
    value {
      list {
        shape {
        }
      }
    }
  }
  attr {
    key: "dtype"
    value {
      type: DT_STRING
    }
  }
  attr {
    key: "value"
    value {
      tensor {
        dtype: DT_STRING
        tensor_shape {
        }
        string_val: "load_batch/batch/fraction_of_32_full"
      }
    }
  }
}
node {
  name: "load_batch/batch/fraction_of_32_full"
  op: "ScalarSummary"
  input: "load_batch/batch/fraction_of_32_full/tags"
  input: "load_batch/batch/mul"
  device: "/device:CPU:0"
  attr {
    key: "T"
    value {
      type: DT_FLOAT
    }
  }
  attr {
    key: "_output_shapes"
    value {
      list {
        shape {
        }
      }
    }
  }
}
node {
  name: "load_batch/batch/n"
  op: "Const"
  device: "/device:CPU:0"
  attr {
    key: "_output_shapes"
    value {
      list {
        shape {
        }
      }
    }
  }
  attr {
    key: "dtype"
    value {
      type: DT_INT32
    }
  }
  attr {
    key: "value"
    value {
      tensor {
        dtype: DT_INT32
        tensor_shape {
        }
        int_val: 8
      }
    }
  }
}
node {
  name: "load_batch/batch"
  op: "QueueDequeueManyV2"
  input: "load_batch/batch/fifo_queue"
  input: "load_batch/batch/n"
  device: "/device:CPU:0"
  attr {
    key: "_output_shapes"
    value {
      list {
        shape {
          dim {
            size: 8
          }
          dim {
            size: 320
          }
          dim {
            size: 448
          }
          dim {
            size: 3
          }
        }
        shape {
          dim {
            size: 8
          }
          dim {
            size: 320
          }
          dim {
            size: 448
          }
          dim {
            size: 3
          }
        }
        shape {
          dim {
            size: 8
          }
          dim {
            size: 320
          }
          dim {
            size: 448
          }
          dim {
            size: 2
          }
        }
      }
    }
  }
  attr {
    key: "component_types"
    value {
      list {
        type: DT_FLOAT
        type: DT_FLOAT
        type: DT_FLOAT
      }
    }
  }
  attr {
    key: "timeout_ms"
    value {
      i: -1
    }
  }
}
node {
  name: "image_a/tag"
  op: "Const"
  attr {
    key: "_output_shapes"
    value {
      list {
        shape {
        }
      }
    }
  }
  attr {
    key: "dtype"
    value {
      type: DT_STRING
    }
  }
  attr {
    key: "value"
    value {
      tensor {
        dtype: DT_STRING
        tensor_shape {
        }
        string_val: "image_a"
      }
    }
  }
}
node {
  name: "image_a"
  op: "ImageSummary"
  input: "image_a/tag"
  input: "load_batch/batch"
  attr {
    key: "T"
    value {
      type: DT_FLOAT
    }
  }
  attr {
    key: "_output_shapes"
    value {
      list {
        shape {
        }
      }
    }
  }
  attr {
    key: "bad_color"
    value {
      tensor {
        dtype: DT_UINT8
        tensor_shape {
          dim {
            size: 4
          }
        }
        int_val: 255
        int_val: 0
        int_val: 0
        int_val: 255
      }
    }
  }
  attr {
    key: "max_images"
    value {
      i: 2
    }
  }
}
node {
  name: "image_b/tag"
  op: "Const"
  attr {
    key: "_output_shapes"
    value {
      list {
        shape {
        }
      }
    }
  }
  attr {
    key: "dtype"
    value {
      type: DT_STRING
    }
  }
  attr {
    key: "value"
    value {
      tensor {
        dtype: DT_STRING
        tensor_shape {
        }
        string_val: "image_b"
      }
    }
  }
}
node {
  name: "image_b"
  op: "ImageSummary"
  input: "image_b/tag"
  input: "load_batch/batch:1"
  attr {
    key: "T"
    value {
      type: DT_FLOAT
    }
  }
  attr {
    key: "_output_shapes"
    value {
      list {
        shape {
        }
      }
    }
  }
  attr {
    key: "bad_color"
    value {
      tensor {
        dtype: DT_UINT8
        tensor_shape {
          dim {
            size: 4
          }
        }
        int_val: 255
        int_val: 0
        int_val: 0
        int_val: 255
      }
    }
  }
  attr {
    key: "max_images"
    value {
      i: 2
    }
  }
}
node {
  name: "Cast/x"
  op: "Const"
  attr {
    key: "_output_shapes"
    value {
      list {
        shape {
        }
      }
    }
  }
  attr {
    key: "dtype"
    value {
      type: DT_INT32
    }
  }
  attr {
    key: "value"
    value {
      tensor {
        dtype: DT_INT32
        tensor_shape {
        }
        int_val: 400000
      }
    }
  }
}
node {
  name: "Cast"
  op: "Cast"
  input: "Cast/x"
  attr {
    key: "DstT"
    value {
      type: DT_INT64
    }
  }
  attr {
    key: "SrcT"
    value {
      type: DT_INT32
    }
  }
  attr {
    key: "_output_shapes"
    value {
      list {
        shape {
        }
      }
    }
  }
}
node {
  name: "Cast_1/x"
  op: "Const"
  attr {
    key: "_output_shapes"
    value {
      list {
        shape {
        }
      }
    }
  }
  attr {
    key: "dtype"
    value {
      type: DT_INT32
    }
  }
  attr {
    key: "value"
    value {
      tensor {
        dtype: DT_INT32
        tensor_shape {
        }
        int_val: 600000
      }
    }
  }
}
node {
  name: "Cast_1"
  op: "Cast"
  input: "Cast_1/x"
  attr {
    key: "DstT"
    value {
      type: DT_INT64
    }
  }
  attr {
    key: "SrcT"
    value {
      type: DT_INT32
    }
  }
  attr {
    key: "_output_shapes"
    value {
      list {
        shape {
        }
      }
    }
  }
}
node {
  name: "Cast_2/x"
  op: "Const"
  attr {
    key: "_output_shapes"
    value {
      list {
        shape {
        }
      }
    }
  }
  attr {
    key: "dtype"
    value {
      type: DT_INT32
    }
  }
  attr {
    key: "value"
    value {
      tensor {
        dtype: DT_INT32
        tensor_shape {
        }
        int_val: 800000
      }
    }
  }
}
node {
  name: "Cast_2"
  op: "Cast"
  input: "Cast_2/x"
  attr {
    key: "DstT"
    value {
      type: DT_INT64
    }
  }
  attr {
    key: "SrcT"
    value {
      type: DT_INT32
    }
  }
  attr {
    key: "_output_shapes"
    value {
      list {
        shape {
        }
      }
    }
  }
}
node {
  name: "Cast_3/x"
  op: "Const"
  attr {
    key: "_output_shapes"
    value {
      list {
        shape {
        }
      }
    }
  }
  attr {
    key: "dtype"
    value {
      type: DT_INT32
    }
  }
  attr {
    key: "value"
    value {
      tensor {
        dtype: DT_INT32
        tensor_shape {
        }
        int_val: 1000000
      }
    }
  }
}
node {
  name: "Cast_3"
  op: "Cast"
  input: "Cast_3/x"
  attr {
    key: "DstT"
    value {
      type: DT_INT64
    }
  }
  attr {
    key: "SrcT"
    value {
      type: DT_INT32
    }
  }
  attr {
    key: "_output_shapes"
    value {
      list {
        shape {
        }
      }
    }
  }
}
node {
  name: "PiecewiseConstant/Const"
  op: "Const"
  attr {
    key: "_output_shapes"
    value {
      list {
        shape {
        }
      }
    }
  }
  attr {
    key: "dtype"
    value {
      type: DT_FLOAT
    }
  }
  attr {
    key: "value"
    value {
      tensor {
        dtype: DT_FLOAT
        tensor_shape {
        }
        float_val: 0.0001
      }
    }
  }
}
node {
  name: "PiecewiseConstant/Const_1"
  op: "Const"
  attr {
    key: "_output_shapes"
    value {
      list {
        shape {
        }
      }
    }
  }
  attr {
    key: "dtype"
    value {
      type: DT_FLOAT
    }
  }
  attr {
    key: "value"
    value {
      tensor {
        dtype: DT_FLOAT
        tensor_shape {
        }
        float_val: 5e-05
      }
    }
  }
}
node {
  name: "PiecewiseConstant/Const_2"
  op: "Const"
  attr {
    key: "_output_shapes"
    value {
      list {
        shape {
        }
      }
    }
  }
  attr {
    key: "dtype"
    value {
      type: DT_FLOAT
    }
  }
  attr {
    key: "value"
    value {
      tensor {
        dtype: DT_FLOAT
        tensor_shape {
        }
        float_val: 2.5e-05
      }
    }
  }
}
node {
  name: "PiecewiseConstant/Const_3"
  op: "Const"
  attr {
    key: "_output_shapes"
    value {
      list {
        shape {
        }
      }
    }
  }
  attr {
    key: "dtype"
    value {
      type: DT_FLOAT
    }
  }
  attr {
    key: "value"
    value {
      tensor {
        dtype: DT_FLOAT
        tensor_shape {
        }
        float_val: 1.25e-05
      }
    }
  }
}
node {
  name: "PiecewiseConstant/Const_4"
  op: "Const"
  attr {
    key: "_output_shapes"
    value {
      list {
        shape {
        }
      }
    }
  }
  attr {
    key: "dtype"
    value {
      type: DT_FLOAT
    }
  }
  attr {
    key: "value"
    value {
      tensor {
        dtype: DT_FLOAT
        tensor_shape {
        }
        float_val: 6.25e-06
      }
    }
  }
}
node {
  name: "PiecewiseConstant/LessEqual"
  op: "LessEqual"
  input: "global_step/read"
  input: "Cast"
  attr {
    key: "T"
    value {
      type: DT_INT64
    }
  }
  attr {
    key: "_output_shapes"
    value {
      list {
        shape {
        }
      }
    }
  }
}
node {
  name: "PiecewiseConstant/Greater"
  op: "Greater"
  input: "global_step/read"
  input: "Cast_3"
  attr {
    key: "T"
    value {
      type: DT_INT64
    }
  }
  attr {
    key: "_output_shapes"
    value {
      list {
        shape {
        }
      }
    }
  }
}
node {
  name: "PiecewiseConstant/Greater_1"
  op: "Greater"
  input: "global_step/read"
  input: "Cast"
  attr {
    key: "T"
    value {
      type: DT_INT64
    }
  }
  attr {
    key: "_output_shapes"
    value {
      list {
        shape {
        }
      }
    }
  }
}
node {
  name: "PiecewiseConstant/LessEqual_1"
  op: "LessEqual"
  input: "global_step/read"
  input: "Cast_1"
  attr {
    key: "T"
    value {
      type: DT_INT64
    }
  }
  attr {
    key: "_output_shapes"
    value {
      list {
        shape {
        }
      }
    }
  }
}
node {
  name: "PiecewiseConstant/and"
  op: "LogicalAnd"
  input: "PiecewiseConstant/Greater_1"
  input: "PiecewiseConstant/LessEqual_1"
  attr {
    key: "_output_shapes"
    value {
      list {
        shape {
        }
      }
    }
  }
}
node {
  name: "PiecewiseConstant/Greater_2"
  op: "Greater"
  input: "global_step/read"
  input: "Cast_1"
  attr {
    key: "T"
    value {
      type: DT_INT64
    }
  }
  attr {
    key: "_output_shapes"
    value {
      list {
        shape {
        }
      }
    }
  }
}
node {
  name: "PiecewiseConstant/LessEqual_2"
  op: "LessEqual"
  input: "global_step/read"
  input: "Cast_2"
  attr {
    key: "T"
    value {
      type: DT_INT64
    }
  }
  attr {
    key: "_output_shapes"
    value {
      list {
        shape {
        }
      }
    }
  }
}
node {
  name: "PiecewiseConstant/and_1"
  op: "LogicalAnd"
  input: "PiecewiseConstant/Greater_2"
  input: "PiecewiseConstant/LessEqual_2"
  attr {
    key: "_output_shapes"
    value {
      list {
        shape {
        }
      }
    }
  }
}
node {
  name: "PiecewiseConstant/Greater_3"
  op: "Greater"
  input: "global_step/read"
  input: "Cast_2"
  attr {
    key: "T"
    value {
      type: DT_INT64
    }
  }
  attr {
    key: "_output_shapes"
    value {
      list {
        shape {
        }
      }
    }
  }
}
node {
  name: "PiecewiseConstant/LessEqual_3"
  op: "LessEqual"
  input: "global_step/read"
  input: "Cast_3"
  attr {
    key: "T"
    value {
      type: DT_INT64
    }
  }
  attr {
    key: "_output_shapes"
    value {
      list {
        shape {
        }
      }
    }
  }
}
node {
  name: "PiecewiseConstant/and_2"
  op: "LogicalAnd"
  input: "PiecewiseConstant/Greater_3"
  input: "PiecewiseConstant/LessEqual_3"
  attr {
    key: "_output_shapes"
    value {
      list {
        shape {
        }
      }
    }
  }
}
node {
  name: "PiecewiseConstant/case/preds_c"
  op: "Pack"
  input: "PiecewiseConstant/LessEqual"
  input: "PiecewiseConstant/Greater"
  input: "PiecewiseConstant/and"
  input: "PiecewiseConstant/and_1"
  input: "PiecewiseConstant/and_2"
  attr {
    key: "N"
    value {
      i: 5
    }
  }
  attr {
    key: "T"
    value {
      type: DT_BOOL
    }
  }
  attr {
    key: "_output_shapes"
    value {
      list {
        shape {
          dim {
            size: 5
          }
        }
      }
    }
  }
  attr {
    key: "axis"
    value {
      i: 0
    }
  }
}
node {
  name: "PiecewiseConstant/case/Cast"
  op: "Cast"
  input: "PiecewiseConstant/case/preds_c"
  attr {
    key: "DstT"
    value {
      type: DT_INT32
    }
  }
  attr {
    key: "SrcT"
    value {
      type: DT_BOOL
    }
  }
  attr {
    key: "_output_shapes"
    value {
      list {
        shape {
          dim {
            size: 5
          }
        }
      }
    }
  }
}
node {
  name: "PiecewiseConstant/case/Const"
  op: "Const"
  attr {
    key: "_output_shapes"
    value {
      list {
        shape {
          dim {
            size: 1
          }
        }
      }
    }
  }
  attr {
    key: "dtype"
    value {
      type: DT_INT32
    }
  }
  attr {
    key: "value"
    value {
      tensor {
        dtype: DT_INT32
        tensor_shape {
          dim {
            size: 1
          }
        }
        int_val: 0
      }
    }
  }
}
node {
  name: "PiecewiseConstant/case/num_true_conds"
  op: "Sum"
  input: "PiecewiseConstant/case/Cast"
  input: "PiecewiseConstant/case/Const"
  attr {
    key: "T"
    value {
      type: DT_INT32
    }
  }
  attr {
    key: "Tidx"
    value {
      type: DT_INT32
    }
  }
  attr {
    key: "_output_shapes"
    value {
      list {
        shape {
        }
      }
    }
  }
  attr {
    key: "keep_dims"
    value {
      b: false
    }
  }
}
node {
  name: "PiecewiseConstant/case/n_true_conds"
  op: "Const"
  attr {
    key: "_output_shapes"
    value {
      list {
        shape {
        }
      }
    }
  }
  attr {
    key: "dtype"
    value {
      type: DT_INT32
    }
  }
  attr {
    key: "value"
    value {
      tensor {
        dtype: DT_INT32
        tensor_shape {
        }
        int_val: 1
      }
    }
  }
}
node {
  name: "PiecewiseConstant/case/LessEqual"
  op: "LessEqual"
  input: "PiecewiseConstant/case/num_true_conds"
  input: "PiecewiseConstant/case/n_true_conds"
  attr {
    key: "T"
    value {
      type: DT_INT32
    }
  }
  attr {
    key: "_output_shapes"
    value {
      list {
        shape {
        }
      }
    }
  }
}
node {
  name: "PiecewiseConstant/case/Assert/Const"
  op: "Const"
  attr {
    key: "_output_shapes"
    value {
      list {
        shape {
        }
      }
    }
  }
  attr {
    key: "dtype"
    value {
      type: DT_STRING
    }
  }
  attr {
    key: "value"
    value {
      tensor {
        dtype: DT_STRING
        tensor_shape {
        }
        string_val: "…"
      }
    }
  }
}
node {
  name: "PiecewiseConstant/case/Assert/AssertGuard/Switch"
  op: "Switch"
  input: "PiecewiseConstant/case/LessEqual"
  input: "PiecewiseConstant/case/LessEqual"
  attr {
    key: "T"
    value {
      type: DT_BOOL
    }
  }
  attr {
    key: "_output_shapes"
    value {
      list {
        shape {
        }
        shape {
        }
      }
    }
  }
}
node {
  name: "PiecewiseConstant/case/Assert/AssertGuard/switch_t"
  op: "Identity"
  input: "PiecewiseConstant/case/Assert/AssertGuard/Switch:1"
  attr {
    key: "T"
    value {
      type: DT_BOOL
    }
  }
  attr {
    key: "_output_shapes"
    value {
      list {
        shape {
        }
      }
    }
  }
}
node {
  name: "PiecewiseConstant/case/Assert/AssertGuard/switch_f"
  op: "Identity"
  input: "PiecewiseConstant/case/Assert/AssertGuard/Switch"
  attr {
    key: "T"
    value {
      type: DT_BOOL
    }
  }
  attr {
    key: "_output_shapes"
    value {
      list {
        shape {
        }
      }
    }
  }
}
node {
  name: "PiecewiseConstant/case/Assert/AssertGuard/pred_id"
  op: "Identity"
  input: "PiecewiseConstant/case/LessEqual"
  attr {
    key: "T"
    value {
      type: DT_BOOL
    }
  }
  attr {
    key: "_output_shapes"
    value {
      list {
        shape {
        }
      }
    }
  }
}
node {
  name: "PiecewiseConstant/case/Assert/AssertGuard/NoOp"
  op: "NoOp"
  input: "^PiecewiseConstant/case/Assert/AssertGuard/switch_t"
}
node {
  name: "PiecewiseConstant/case/Assert/AssertGuard/control_dependency"
  op: "Identity"
  input: "PiecewiseConstant/case/Assert/AssertGuard/switch_t"
  input: "^PiecewiseConstant/case/Assert/AssertGuard/NoOp"
  attr {
    key: "T"
    value {
      type: DT_BOOL
    }
  }
  attr {
    key: "_class"
    value {
      list {
        s: "loc:@PiecewiseConstant/case/Assert/AssertGuard/switch_t"
      }
    }
  }
  attr {
    key: "_output_shapes"
    value {
      list {
        shape {
        }
      }
    }
  }
}
node {
  name: "PiecewiseConstant/case/Assert/AssertGuard/Assert/data_0"
  op: "Const"
  input: "^PiecewiseConstant/case/Assert/AssertGuard/switch_f"
  attr {
    key: "_output_shapes"
    value {
      list {
        shape {
        }
      }
    }
  }
  attr {
    key: "dtype"
    value {
      type: DT_STRING
    }
  }
  attr {
    key: "value"
    value {
      tensor {
        dtype: DT_STRING
        tensor_shape {
        }
        string_val: "…"
      }
    }
  }
}
node {
  name: "PiecewiseConstant/case/Assert/AssertGuard/Assert"
  op: "Assert"
  input: "PiecewiseConstant/case/Assert/AssertGuard/Assert/Switch"
  input: "PiecewiseConstant/case/Assert/AssertGuard/Assert/data_0"
  input: "PiecewiseConstant/case/Assert/AssertGuard/Assert/Switch_1"
  attr {
    key: "T"
    value {
      list {
        type: DT_STRING
        type: DT_BOOL
      }
    }
  }
  attr {
    key: "summarize"
    value {
      i: 5
    }
  }
}
node {
  name: "PiecewiseConstant/case/Assert/AssertGuard/Assert/Switch"
  op: "Switch"
  input: "PiecewiseConstant/case/LessEqual"
  input: "PiecewiseConstant/case/Assert/AssertGuard/pred_id"
  attr {
    key: "T"
    value {
      type: DT_BOOL
    }
  }
  attr {
    key: "_class"
    value {
      list {
        s: "loc:@PiecewiseConstant/case/LessEqual"
      }
    }
  }
  attr {
    key: "_output_shapes"
    value {
      list {
        shape {
        }
        shape {
        }
      }
    }
  }
}
node {
  name: "PiecewiseConstant/case/Assert/AssertGuard/Assert/Switch_1"
  op: "Switch"
  input: "PiecewiseConstant/case/preds_c"
  input: "PiecewiseConstant/case/Assert/AssertGuard/pred_id"
  attr {
    key: "T"
    value {
      type: DT_BOOL
    }
  }
  attr {
    key: "_class"
    value {
      list {
        s: "loc:@PiecewiseConstant/case/preds_c"
      }
    }
  }
  attr {
    key: "_output_shapes"
    value {
      list {
        shape {
          dim {
            size: 5
          }
        }
        shape {
          dim {
            size: 5
          }
        }
      }
    }
  }
}
node {
  name: "PiecewiseConstant/case/Assert/AssertGuard/control_dependency_1"
  op: "Identity"
  input: "PiecewiseConstant/case/Assert/AssertGuard/switch_f"
  input: "^PiecewiseConstant/case/Assert/AssertGuard/Assert"
  attr {
    key: "T"
    value {
      type: DT_BOOL
    }
  }
  attr {
    key: "_class"
    value {
      list {
        s: "loc:@PiecewiseConstant/case/Assert/AssertGuard/switch_f"
      }
    }
  }
  attr {
    key: "_output_shapes"
    value {
      list {
        shape {
        }
      }
    }
  }
}
node {
  name: "PiecewiseConstant/case/Assert/AssertGuard/Merge"
  op: "Merge"
  input: "PiecewiseConstant/case/Assert/AssertGuard/control_dependency_1"
  input: "PiecewiseConstant/case/Assert/AssertGuard/control_dependency"
  attr {
    key: "N"
    value {
      i: 2
    }
  }
  attr {
    key: "T"
    value {
      type: DT_BOOL
    }
  }
  attr {
    key: "_output_shapes"
    value {
      list {
        shape {
        }
        shape {
        }
      }
    }
  }
}
node {
  name: "PiecewiseConstant/case/cond/Switch"
  op: "Switch"
  input: "PiecewiseConstant/LessEqual"
  input: "PiecewiseConstant/LessEqual"
  input: "^PiecewiseConstant/case/Assert/AssertGuard/Merge"
  attr {
    key: "T"
    value {
      type: DT_BOOL
    }
  }
  attr {
    key: "_output_shapes"
    value {
      list {
        shape {
        }
        shape {
        }
      }
    }
  }
}
node {
  name: "PiecewiseConstant/case/cond/switch_t"
  op: "Identity"
  input: "PiecewiseConstant/case/cond/Switch:1"
  attr {
    key: "T"
    value {
      type: DT_BOOL
    }
  }
  attr {
    key: "_output_shapes"
    value {
      list {
        shape {
        }
      }
    }
  }
}
node {
  name: "PiecewiseConstant/case/cond/switch_f"
  op: "Identity"
  input: "PiecewiseConstant/case/cond/Switch"
  attr {
    key: "T"
    value {
      type: DT_BOOL
    }
  }
  attr {
    key: "_output_shapes"
    value {
      list {
        shape {
        }
      }
    }
  }
}
node {
  name: "PiecewiseConstant/case/cond/pred_id"
  op: "Identity"
  input: "PiecewiseConstant/LessEqual"
  input: "^PiecewiseConstant/case/Assert/AssertGuard/Merge"
  attr {
    key: "T"
    value {
      type: DT_BOOL
    }
  }
  attr {
    key: "_output_shapes"
    value {
      list {
        shape {
        }
      }
    }
  }
}
node {
  name: "PiecewiseConstant/case/cond/Switch_1"
  op: "Switch"
  input: "PiecewiseConstant/Const"
  input: "PiecewiseConstant/case/cond/pred_id"
  attr {
    key: "T"
    value {
      type: DT_FLOAT
    }
  }
  attr {
    key: "_class"
    value {
      list {
        s: "loc:@PiecewiseConstant/Const"
      }
    }
  }
  attr {
    key: "_output_shapes"
    value {
      list {
        shape {
        }
        shape {
        }
      }
    }
  }
}
node {
  name: "PiecewiseConstant/case/cond/cond/Switch"
  op: "Switch"
  input: "PiecewiseConstant/case/cond/cond/Switch/Switch"
  input: "PiecewiseConstant/case/cond/cond/Switch/Switch"
  input: "^PiecewiseConstant/case/Assert/AssertGuard/Merge"
  attr {
    key: "T"
    value {
      type: DT_BOOL
    }
  }
  attr {
    key: "_output_shapes"
    value {
      list {
        shape {
        }
        shape {
        }
      }
    }
  }
}
node {
  name: "PiecewiseConstant/case/cond/cond/Switch/Switch"
  op: "Switch"
  input: "PiecewiseConstant/Greater"
  input: "PiecewiseConstant/case/cond/pred_id"
  attr {
    key: "T"
    value {
      type: DT_BOOL
    }
  }
  attr {
    key: "_class"
    value {
      list {
        s: "loc:@PiecewiseConstant/Greater"
      }
    }
  }
  attr {
    key: "_output_shapes"
    value {
      list {
        shape {
        }
        shape {
        }
      }
    }
  }
}
node {
  name: "PiecewiseConstant/case/cond/cond/switch_t"
  op: "Identity"
  input: "PiecewiseConstant/case/cond/cond/Switch:1"
  attr {
    key: "T"
    value {
      type: DT_BOOL
    }
  }
  attr {
    key: "_output_shapes"
    value {
      list {
        shape {
        }
      }
    }
  }
}
node {
  name: "PiecewiseConstant/case/cond/cond/switch_f"
  op: "Identity"
  input: "PiecewiseConstant/case/cond/cond/Switch"
  attr {
    key: "T"
    value {
      type: DT_BOOL
    }
  }
  attr {
    key: "_output_shapes"
    value {
      list {
        shape {
        }
      }
    }
  }
}
node {
  name: "PiecewiseConstant/case/cond/cond/pred_id"
  op: "Identity"
  input: "PiecewiseConstant/case/cond/cond/Switch/Switch"
  input: "^PiecewiseConstant/case/Assert/AssertGuard/Merge"
  attr {
    key: "T"
    value {
      type: DT_BOOL
    }
  }
  attr {
    key: "_output_shapes"
    value {
      list {
        shape {
        }
      }
    }
  }
}
node {
  name: "PiecewiseConstant/case/cond/cond/Switch_1"
  op: "Switch"
  input: "PiecewiseConstant/Const_4"
  input: "PiecewiseConstant/case/cond/pred_id"
  attr {
    key: "T"
    value {
      type: DT_FLOAT
    }
  }
  attr {
    key: "_class"
    value {
      list {
        s: "loc:@PiecewiseConstant/Const_4"
      }
    }
  }
  attr {
    key: "_output_shapes"
    value {
      list {
        shape {
        }
        shape {
        }
      }
    }
  }
}
node {
  name: "PiecewiseConstant/case/cond/cond/Switch_2"
  op: "Switch"
  input: "PiecewiseConstant/case/cond/cond/Switch_1"
  input: "PiecewiseConstant/case/cond/cond/pred_id"
  attr {
    key: "T"
    value {
      type: DT_FLOAT
    }
  }
  attr {
    key: "_class"
    value {
      list {
        s: "loc:@PiecewiseConstant/Const_4"
      }
    }
  }
  attr {
    key: "_output_shapes"
    value {
      list {
        shape {
        }
        shape {
        }
      }
    }
  }
}
node {
  name: "PiecewiseConstant/case/cond/cond/cond/Switch"
  op: "Switch"
  input: "PiecewiseConstant/case/cond/cond/cond/Switch/Switch_1"
  input: "PiecewiseConstant/case/cond/cond/cond/Switch/Switch_1"
  input: "^PiecewiseConstant/case/Assert/AssertGuard/Merge"
  attr {
    key: "T"
    value {
      type: DT_BOOL
    }
  }
  attr {
    key: "_output_shapes"
    value {
      list {
        shape {
        }
        shape {
        }
      }
    }
  }
}
node {
  name: "PiecewiseConstant/case/cond/cond/cond/Switch/Switch"
  op: "Switch"
  input: "PiecewiseConstant/and"
  input: "PiecewiseConstant/case/cond/pred_id"
  attr {
    key: "T"
    value {
      type: DT_BOOL
    }
  }
  attr {
    key: "_class"
    value {
      list {
        s: "loc:@PiecewiseConstant/and"
      }
    }
  }
  attr {
    key: "_output_shapes"
    value {
      list {
        shape {
        }
        shape {
        }
      }
    }
  }
}
node {
  name: "PiecewiseConstant/case/cond/cond/cond/Switch/Switch_1"
  op: "Switch"
  input: "PiecewiseConstant/case/cond/cond/cond/Switch/Switch"
  input: "PiecewiseConstant/case/cond/cond/pred_id"
  attr {
    key: "T"
    value {
      type: DT_BOOL
    }
  }
  attr {
    key: "_class"
    value {
      list {
        s: "loc:@PiecewiseConstant/and"
      }
    }
  }
  attr {
    key: "_output_shapes"
    value {
      list {
        shape {
        }
        shape {
        }
      }
    }
  }
}
node {
  name: "PiecewiseConstant/case/cond/cond/cond/switch_t"
  op: "Identity"
  input: "PiecewiseConstant/case/cond/cond/cond/Switch:1"
  attr {
    key: "T"
    value {
      type: DT_BOOL
    }
  }
  attr {
    key: "_output_shapes"
    value {
      list {
        shape {
        }
      }
    }
  }
}
node {
  name: "PiecewiseConstant/case/cond/cond/cond/switch_f"
  op: "Identity"
  input: "PiecewiseConstant/case/cond/cond/cond/Switch"
  attr {
    key: "T"
    value {
      type: DT_BOOL
    }
  }
  attr {
    key: "_output_shapes"
    value {
      list {
        shape {
        }
      }
    }
  }
}
node {
  name: "PiecewiseConstant/case/cond/cond/cond/pred_id"
  op: "Identity"
  input: "PiecewiseConstant/case/cond/cond/cond/Switch/Switch_1"
  input: "^PiecewiseConstant/case/Assert/AssertGuard/Merge"
  attr {
    key: "T"
    value {
      type: DT_BOOL
    }
  }
  attr {
    key: "_output_shapes"
    value {
      list {
        shape {
        }
      }
    }
  }
}
node {
  name: "PiecewiseConstant/case/cond/cond/cond/Switch_1"
  op: "Switch"
  input: "PiecewiseConstant/Const_1"
  input: "PiecewiseConstant/case/cond/pred_id"
  attr {
    key: "T"
    value {
      type: DT_FLOAT
    }
  }
  attr {
    key: "_class"
    value {
      list {
        s: "loc:@PiecewiseConstant/Const_1"
      }
    }
  }
  attr {
    key: "_output_shapes"
    value {
      list {
        shape {
        }
        shape {
        }
      }
    }
  }
}
node {
  name: "PiecewiseConstant/case/cond/cond/cond/Switch_2"
  op: "Switch"
  input: "PiecewiseConstant/case/cond/cond/cond/Switch_1"
  input: "PiecewiseConstant/case/cond/cond/pred_id"
  attr {
    key: "T"
    value {
      type: DT_FLOAT
    }
  }
  attr {
    key: "_class"
    value {
      list {
        s: "loc:@PiecewiseConstant/Const_1"
      }
    }
  }
  attr {
    key: "_output_shapes"
    value {
      list {
        shape {
        }
        shape {
        }
      }
    }
  }
}
node {
  name: "PiecewiseConstant/case/cond/cond/cond/Switch_3"
  op: "Switch"
  input: "PiecewiseConstant/case/cond/cond/cond/Switch_2"
  input: "PiecewiseConstant/case/cond/cond/cond/pred_id"
  attr {
    key: "T"
    value {
      type: DT_FLOAT
    }
  }
  attr {
    key: "_class"
    value {
      list {
        s: "loc:@PiecewiseConstant/Const_1"
      }
    }
  }
  attr {
    key: "_output_shapes"
    value {
      list {
        shape {
        }
        shape {
        }
      }
    }
  }
}
node {
  name: "PiecewiseConstant/case/cond/cond/cond/cond/Switch"
  op: "Switch"
  input: "PiecewiseConstant/case/cond/cond/cond/cond/Switch/Switch_2"
  input: "PiecewiseConstant/case/cond/cond/cond/cond/Switch/Switch_2"
  input: "^PiecewiseConstant/case/Assert/AssertGuard/Merge"
  attr {
    key: "T"
    value {
      type: DT_BOOL
    }
  }
  attr {
    key: "_output_shapes"
    value {
      list {
        shape {
        }
        shape {
        }
      }
    }
  }
}
node {
  name: "PiecewiseConstant/case/cond/cond/cond/cond/Switch/Switch"
  op: "Switch"
  input: "PiecewiseConstant/and_1"
  input: "PiecewiseConstant/case/cond/pred_id"
  attr {
    key: "T"
    value {
      type: DT_BOOL
    }
  }
  attr {
    key: "_class"
    value {
      list {
        s: "loc:@PiecewiseConstant/and_1"
      }
    }
  }
  attr {
    key: "_output_shapes"
    value {
      list {
        shape {
        }
        shape {
        }
      }
    }
  }
}
node {
  name: "PiecewiseConstant/case/cond/cond/cond/cond/Switch/Switch_1"
  op: "Switch"
  input: "PiecewiseConstant/case/cond/cond/cond/cond/Switch/Switch"
  input: "PiecewiseConstant/case/cond/cond/pred_id"
  attr {
    key: "T"
    value {
      type: DT_BOOL
    }
  }
  attr {
    key: "_class"
    value {
      list {
        s: "loc:@PiecewiseConstant/and_1"
      }
    }
  }
  attr {
    key: "_output_shapes"
    value {
      list {
        shape {
        }
        shape {
        }
      }
    }
  }
}
node {
  name: "PiecewiseConstant/case/cond/cond/cond/cond/Switch/Switch_2"
  op: "Switch"
  input: "PiecewiseConstant/case/cond/cond/cond/cond/Switch/Switch_1"
  input: "PiecewiseConstant/case/cond/cond/cond/pred_id"
  attr {
    key: "T"
    value {
      type: DT_BOOL
    }
  }
  attr {
    key: "_class"
    value {
      list {
        s: "loc:@PiecewiseConstant/and_1"
      }
    }
  }
  attr {
    key: "_output_shapes"
    value {
      list {
        shape {
        }
        shape {
        }
      }
    }
  }
}
node {
  name: "PiecewiseConstant/case/cond/cond/cond/cond/switch_t"
  op: "Identity"
  input: "PiecewiseConstant/case/cond/cond/cond/cond/Switch:1"
  attr {
    key: "T"
    value {
      type: DT_BOOL
    }
  }
  attr {
    key: "_output_shapes"
    value {
      list {
        shape {
        }
      }
    }
  }
}
node {
  name: "PiecewiseConstant/case/cond/cond/cond/cond/switch_f"
  op: "Identity"
  input: "PiecewiseConstant/case/cond/cond/cond/cond/Switch"
  attr {
    key: "T"
    value {
      type: DT_BOOL
    }
  }
  attr {
    key: "_output_shapes"
    value {
      list {
        shape {
        }
      }
    }
  }
}
node {
  name: "PiecewiseConstant/case/cond/cond/cond/cond/pred_id"
  op: "Identity"
  input: "PiecewiseConstant/case/cond/cond/cond/cond/Switch/Switch_2"
  input: "^PiecewiseConstant/case/Assert/AssertGuard/Merge"
  attr {
    key: "T"
    value {
      type: DT_BOOL
    }
  }
  attr {
    key: "_output_shapes"
    value {
      list {
        shape {
        }
      }
    }
  }
}
node {
  name: "PiecewiseConstant/case/cond/cond/cond/cond/Switch_1"
  op: "Switch"
  input: "PiecewiseConstant/Const_2"
  input: "PiecewiseConstant/case/cond/pred_id"
  attr {
    key: "T"
    value {
      type: DT_FLOAT
    }
  }
  attr {
    key: "_class"
    value {
      list {
        s: "loc:@PiecewiseConstant/Const_2"
      }
    }
  }
  attr {
    key: "_output_shapes"
    value {
      list {
        shape {
        }
        shape {
        }
      }
    }
  }
}
node {
  name: "PiecewiseConstant/case/cond/cond/cond/cond/Switch_2"
  op: "Switch"
  input: "PiecewiseConstant/case/cond/cond/cond/cond/Switch_1"
  input: "PiecewiseConstant/case/cond/cond/pred_id"
  attr {
    key: "T"
    value {
      type: DT_FLOAT
    }
  }
  attr {
    key: "_class"
    value {
      list {
        s: "loc:@PiecewiseConstant/Const_2"
      }
    }
  }
  attr {
    key: "_output_shapes"
    value {
      list {
        shape {
        }
        shape {
        }
      }
    }
  }
}
node {
  name: "PiecewiseConstant/case/cond/cond/cond/cond/Switch_3"
  op: "Switch"
  input: "PiecewiseConstant/case/cond/cond/cond/cond/Switch_2"
  input: "PiecewiseConstant/case/cond/cond/cond/pred_id"
  attr {
    key: "T"
    value {
      type: DT_FLOAT
    }
  }
  attr {
    key: "_class"
    value {
      list {
        s: "loc:@PiecewiseConstant/Const_2"
      }
    }
  }
  attr {
    key: "_output_shapes"
    value {
      list {
        shape {
        }
        shape {
        }
      }
    }
  }
}
node {
  name: "PiecewiseConstant/case/cond/cond/cond/cond/Switch_4"
  op: "Switch"
  input: "PiecewiseConstant/case/cond/cond/cond/cond/Switch_3"
  input: "PiecewiseConstant/case/cond/cond/cond/cond/pred_id"
  attr {
    key: "T"
    value {
      type: DT_FLOAT
    }
  }
  attr {
    key: "_class"
    value {
      list {
        s: "loc:@PiecewiseConstant/Const_2"
      }
    }
  }
  attr {
    key: "_output_shapes"
    value {
      list {
        shape {
        }
        shape {
        }
      }
    }
  }
}
node {
  name: "PiecewiseConstant/case/cond/cond/cond/cond/cond/Switch"
  op: "Switch"
  input: "PiecewiseConstant/case/cond/cond/cond/cond/cond/Switch/Switch_3"
  input: "PiecewiseConstant/case/cond/cond/cond/cond/cond/Switch/Switch_3"
  input: "^PiecewiseConstant/case/Assert/AssertGuard/Merge"
  attr {
    key: "T"
    value {
      type: DT_BOOL
    }
  }
  attr {
    key: "_output_shapes"
    value {
      list {
        shape {
        }
        shape {
        }
      }
    }
  }
}
node {
  name: "PiecewiseConstant/case/cond/cond/cond/cond/cond/Switch/Switch"
  op: "Switch"
  input: "PiecewiseConstant/and_2"
  input: "PiecewiseConstant/case/cond/pred_id"
  attr {
    key: "T"
    value {
      type: DT_BOOL
    }
  }
  attr {
    key: "_class"
    value {
      list {
        s: "loc:@PiecewiseConstant/and_2"
      }
    }
  }
  attr {
    key: "_output_shapes"
    value {
      list {
        shape {
        }
        shape {
        }
      }
    }
  }
}
node {
  name: "PiecewiseConstant/case/cond/cond/cond/cond/cond/Switch/Switch_1"
  op: "Switch"
  input: "PiecewiseConstant/case/cond/cond/cond/cond/cond/Switch/Switch"
  input: "PiecewiseConstant/case/cond/cond/pred_id"
  attr {
    key: "T"
    value {
      type: DT_BOOL
    }
  }
  attr {
    key: "_class"
    value {
      list {
        s: "loc:@PiecewiseConstant/and_2"
      }
    }
  }
  attr {
    key: "_output_shapes"
    value {
      list {
        shape {
        }
        shape {
        }
      }
    }
  }
}
node {
  name: "PiecewiseConstant/case/cond/cond/cond/cond/cond/Switch/Switch_2"
  op: "Switch"
  input: "PiecewiseConstant/case/cond/cond/cond/cond/cond/Switch/Switch_1"
  input: "PiecewiseConstant/case/cond/cond/cond/pred_id"
  attr {
    key: "T"
    value {
      type: DT_BOOL
    }
  }
  attr {
    key: "_class"
    value {
      list {
        s: "loc:@PiecewiseConstant/and_2"
      }
    }
  }
  attr {
    key: "_output_shapes"
    value {
      list {
        shape {
        }
        shape {
        }
      }
    }
  }
}
node {
  name: "PiecewiseConstant/case/cond/cond/cond/cond/cond/Switch/Switch_3"
  op: "Switch"
  input: "PiecewiseConstant/case/cond/cond/cond/cond/cond/Switch/Switch_2"
  input: "PiecewiseConstant/case/cond/cond/cond/cond/pred_id"
  attr {
    key: "T"
    value {
      type: DT_BOOL
    }
  }
  attr {
    key: "_class"
    value {
      list {
        s: "loc:@PiecewiseConstant/and_2"
      }
    }
  }
  attr {
    key: "_output_shapes"
    value {
      list {
        shape {
        }
        shape {
        }
      }
    }
  }
}
node {
  name: "PiecewiseConstant/case/cond/cond/cond/cond/cond/switch_t"
  op: "Identity"
  input: "PiecewiseConstant/case/cond/cond/cond/cond/cond/Switch:1"
  attr {
    key: "T"
    value {
      type: DT_BOOL
    }
  }
  attr {
    key: "_output_shapes"
    value {
      list {
        shape {
        }
      }
    }
  }
}
node {
  name: "PiecewiseConstant/case/cond/cond/cond/cond/cond/switch_f"
  op: "Identity"
  input: "PiecewiseConstant/case/cond/cond/cond/cond/cond/Switch"
  attr {
    key: "T"
    value {
      type: DT_BOOL
    }
  }
  attr {
    key: "_output_shapes"
    value {
      list {
        shape {
        }
      }
    }
  }
}
node {
  name: "PiecewiseConstant/case/cond/cond/cond/cond/cond/pred_id"
  op: "Identity"
  input: "PiecewiseConstant/case/cond/cond/cond/cond/cond/Switch/Switch_3"
  input: "^PiecewiseConstant/case/Assert/AssertGuard/Merge"
  attr {
    key: "T"
    value {
      type: DT_BOOL
    }
  }
  attr {
    key: "_output_shapes"
    value {
      list {
        shape {
        }
      }
    }
  }
}
node {
  name: "PiecewiseConstant/case/cond/cond/cond/cond/cond/Switch_1"
  op: "Switch"
  input: "PiecewiseConstant/Const_3"
  input: "PiecewiseConstant/case/cond/pred_id"
  attr {
    key: "T"
    value {
      type: DT_FLOAT
    }
  }
  attr {
    key: "_class"
    value {
      list {
        s: "loc:@PiecewiseConstant/Const_3"
      }
    }
  }
  attr {
    key: "_output_shapes"
    value {
      list {
        shape {
        }
        shape {
        }
      }
    }
  }
}
node {
  name: "PiecewiseConstant/case/cond/cond/cond/cond/cond/Switch_2"
  op: "Switch"
  input: "PiecewiseConstant/case/cond/cond/cond/cond/cond/Switch_1"
  input: "PiecewiseConstant/case/cond/cond/pred_id"
  attr {
    key: "T"
    value {
      type: DT_FLOAT
    }
  }
  attr {
    key: "_class"
    value {
      list {
        s: "loc:@PiecewiseConstant/Const_3"
      }
    }
  }
  attr {
    key: "_output_shapes"
    value {
      list {
        shape {
        }
        shape {
        }
      }
    }
  }
}
node {
  name: "PiecewiseConstant/case/cond/cond/cond/cond/cond/Switch_3"
  op: "Switch"
  input: "PiecewiseConstant/case/cond/cond/cond/cond/cond/Switch_2"
  input: "PiecewiseConstant/case/cond/cond/cond/pred_id"
  attr {
    key: "T"
    value {
      type: DT_FLOAT
    }
  }
  attr {
    key: "_class"
    value {
      list {
        s: "loc:@PiecewiseConstant/Const_3"
      }
    }
  }
  attr {
    key: "_output_shapes"
    value {
      list {
        shape {
        }
        shape {
        }
      }
    }
  }
}
node {
  name: "PiecewiseConstant/case/cond/cond/cond/cond/cond/Switch_4"
  op: "Switch"
  input: "PiecewiseConstant/case/cond/cond/cond/cond/cond/Switch_3"
  input: "PiecewiseConstant/case/cond/cond/cond/cond/pred_id"
  attr {
    key: "T"
    value {
      type: DT_FLOAT
    }
  }
  attr {
    key: "_class"
    value {
      list {
        s: "loc:@PiecewiseConstant/Const_3"
      }
    }
  }
  attr {
    key: "_output_shapes"
    value {
      list {
        shape {
        }
        shape {
        }
      }
    }
  }
}
node {
  name: "PiecewiseConstant/case/cond/cond/cond/cond/cond/Switch_5"
  op: "Switch"
  input: "PiecewiseConstant/case/cond/cond/cond/cond/cond/Switch_4"
  input: "PiecewiseConstant/case/cond/cond/cond/cond/cond/pred_id"
  attr {
    key: "T"
    value {
      type: DT_FLOAT
    }
  }
  attr {
    key: "_class"
    value {
      list {
        s: "loc:@PiecewiseConstant/Const_3"
      }
    }
  }
  attr {
    key: "_output_shapes"
    value {
      list {
        shape {
        }
        shape {
        }
      }
    }
  }
}
node {
  name: "PiecewiseConstant/case/cond/cond/cond/cond/cond/Switch_6"
  op: "Switch"
  input: "PiecewiseConstant/Const"
  input: "PiecewiseConstant/case/cond/pred_id"
  attr {
    key: "T"
    value {
      type: DT_FLOAT
    }
  }
  attr {
    key: "_class"
    value {
      list {
        s: "loc:@PiecewiseConstant/Const"
      }
    }
  }
  attr {
    key: "_output_shapes"
    value {
      list {
        shape {
        }
        shape {
        }
      }
    }
  }
}
node {
  name: "PiecewiseConstant/case/cond/cond/cond/cond/cond/Switch_7"
  op: "Switch"
  input: "PiecewiseConstant/case/cond/cond/cond/cond/cond/Switch_6"
  input: "PiecewiseConstant/case/cond/cond/pred_id"
  attr {
    key: "T"
    value {
      type: DT_FLOAT
    }
  }
  attr {
    key: "_class"
    value {
      list {
        s: "loc:@PiecewiseConstant/Const"
      }
    }
  }
  attr {
    key: "_output_shapes"
    value {
      list {
        shape {
        }
        shape {
        }
      }
    }
  }
}
node {
  name: "PiecewiseConstant/case/cond/cond/cond/cond/cond/Switch_8"
  op: "Switch"
  input: "PiecewiseConstant/case/cond/cond/cond/cond/cond/Switch_7"
  input: "PiecewiseConstant/case/cond/cond/cond/pred_id"
  attr {
    key: "T"
    value {
      type: DT_FLOAT
    }
  }
  attr {
    key: "_class"
    value {
      list {
        s: "loc:@PiecewiseConstant/Const"
      }
    }
  }
  attr {
    key: "_output_shapes"
    value {
      list {
        shape {
        }
        shape {
        }
      }
    }
  }
}
node {
  name: "PiecewiseConstant/case/cond/cond/cond/cond/cond/Switch_9"
  op: "Switch"
  input: "PiecewiseConstant/case/cond/cond/cond/cond/cond/Switch_8"
  input: "PiecewiseConstant/case/cond/cond/cond/cond/pred_id"
  attr {
    key: "T"
    value {
      type: DT_FLOAT
    }
  }
  attr {
    key: "_class"
    value {
      list {
        s: "loc:@PiecewiseConstant/Const"
      }
    }
  }
  attr {
    key: "_output_shapes"
    value {
      list {
        shape {
        }
        shape {
        }
      }
    }
  }
}
node {
  name: "PiecewiseConstant/case/cond/cond/cond/cond/cond/Switch_10"
  op: "Switch"
  input: "PiecewiseConstant/case/cond/cond/cond/cond/cond/Switch_9"
  input: "PiecewiseConstant/case/cond/cond/cond/cond/cond/pred_id"
  attr {
    key: "T"
    value {
      type: DT_FLOAT
    }
  }
  attr {
    key: "_class"
    value {
      list {
        s: "loc:@PiecewiseConstant/Const"
      }
    }
  }
  attr {
    key: "_output_shapes"
    value {
      list {
        shape {
        }
        shape {
        }
      }
    }
  }
}
node {
  name: "PiecewiseConstant/case/cond/cond/cond/cond/cond/Merge"
  op: "Merge"
  input: "PiecewiseConstant/case/cond/cond/cond/cond/cond/Switch_10"
  input: "PiecewiseConstant/case/cond/cond/cond/cond/cond/Switch_5:1"
  attr {
    key: "N"
    value {
      i: 2
    }
  }
  attr {
    key: "T"
    value {
      type: DT_FLOAT
    }
  }
  attr {
    key: "_output_shapes"
    value {
      list {
        shape {
        }
        shape {
        }
      }
    }
  }
}
node {
  name: "PiecewiseConstant/case/cond/cond/cond/cond/Merge"
  op: "Merge"
  input: "PiecewiseConstant/case/cond/cond/cond/cond/cond/Merge"
  input: "PiecewiseConstant/case/cond/cond/cond/cond/Switch_4:1"
  attr {
    key: "N"
    value {
      i: 2
    }
  }
  attr {
    key: "T"
    value {
      type: DT_FLOAT
    }
  }
  attr {
    key: "_output_shapes"
    value {
      list {
        shape {
        }
        shape {
        }
      }
    }
  }
}
node {
  name: "PiecewiseConstant/case/cond/cond/cond/Merge"
  op: "Merge"
  input: "PiecewiseConstant/case/cond/cond/cond/cond/Merge"
  input: "PiecewiseConstant/case/cond/cond/cond/Switch_3:1"
  attr {
    key: "N"
    value {
      i: 2
    }
  }
  attr {
    key: "T"
    value {
      type: DT_FLOAT
    }
  }
  attr {
    key: "_output_shapes"
    value {
      list {
        shape {
        }
        shape {
        }
      }
    }
  }
}
node {
  name: "PiecewiseConstant/case/cond/cond/Merge"
  op: "Merge"
  input: "PiecewiseConstant/case/cond/cond/cond/Merge"
  input: "PiecewiseConstant/case/cond/cond/Switch_2:1"
  attr {
    key: "N"
    value {
      i: 2
    }
  }
  attr {
    key: "T"
    value {
      type: DT_FLOAT
    }
  }
  attr {
    key: "_output_shapes"
    value {
      list {
        shape {
        }
        shape {
        }
      }
    }
  }
}
node {
  name: "PiecewiseConstant/case/cond/Merge"
  op: "Merge"
  input: "PiecewiseConstant/case/cond/cond/Merge"
  input: "PiecewiseConstant/case/cond/Switch_1:1"
  attr {
    key: "N"
    value {
      i: 2
    }
  }
  attr {
    key: "T"
    value {
      type: DT_FLOAT
    }
  }
  attr {
    key: "_output_shapes"
    value {
      list {
        shape {
        }
        shape {
        }
      }
    }
  }
}
node {
  name: "FlowNetSD/concat/axis"
  op: "Const"
  attr {
    key: "_output_shapes"
    value {
      list {
        shape {
        }
      }
    }
  }
  attr {
    key: "dtype"
    value {
      type: DT_INT32
    }
  }
  attr {
    key: "value"
    value {
      tensor {
        dtype: DT_INT32
        tensor_shape {
        }
        int_val: 3
      }
    }
  }
}
node {
  name: "FlowNetSD/concat"
  op: "ConcatV2"
  input: "load_batch/batch"
  input: "load_batch/batch:1"
  input: "FlowNetSD/concat/axis"
  attr {
    key: "N"
    value {
      i: 2
    }
  }
  attr {
    key: "T"
    value {
      type: DT_FLOAT
    }
  }
  attr {
    key: "Tidx"
    value {
      type: DT_INT32
    }
  }
  attr {
    key: "_output_shapes"
    value {
      list {
        shape {
          dim {
            size: 8
          }
          dim {
            size: 320
          }
          dim {
            size: 448
          }
          dim {
            size: 6
          }
        }
      }
    }
  }
}
node {
  name: "FlowNetSD/Pad/paddings"
  op: "Const"
  attr {
    key: "_output_shapes"
    value {
      list {
        shape {
          dim {
            size: 4
          }
          dim {
            size: 2
          }
        }
      }
    }
  }
  attr {
    key: "dtype"
    value {
      type: DT_INT32
    }
  }
  attr {
    key: "value"
    value {
      tensor {
        dtype: DT_INT32
        tensor_shape {
          dim {
            size: 4
          }
          dim {
            size: 2
          }
        }
        tensor_content: "…"
      }
    }
  }
}
node {
  name: "FlowNetSD/Pad"
  op: "Pad"
  input: "FlowNetSD/concat"
  input: "FlowNetSD/Pad/paddings"
  attr {
    key: "T"
    value {
      type: DT_FLOAT
    }
  }
  attr {
    key: "Tpaddings"
    value {
      type: DT_INT32
    }
  }
  attr {
    key: "_output_shapes"
    value {
      list {
        shape {
          dim {
            size: 8
          }
          dim {
            size: 322
          }
          dim {
            size: 450
          }
          dim {
            size: 6
          }
        }
      }
    }
  }
}
node {
  name: "FlowNetSD/conv0/weights/Initializer/truncated_normal/shape"
  op: "Const"
  attr {
    key: "_class"
    value {
      list {
        s: "loc:@FlowNetSD/conv0/weights"
      }
    }
  }
  attr {
    key: "_output_shapes"
    value {
      list {
        shape {
          dim {
            size: 4
          }
        }
      }
    }
  }
  attr {
    key: "dtype"
    value {
      type: DT_INT32
    }
  }
  attr {
    key: "value"
    value {
      tensor {
        dtype: DT_INT32
        tensor_shape {
          dim {
            size: 4
          }
        }
        tensor_content: "\003\000\000\000\003\000\000\000\006\000\000\000@\000\000\000"
      }
    }
  }
}
node {
  name: "FlowNetSD/conv0/weights/Initializer/truncated_normal/mean"
  op: "Const"
  attr {
    key: "_class"
    value {
      list {
        s: "loc:@FlowNetSD/conv0/weights"
      }
    }
  }
  attr {
    key: "_output_shapes"
    value {
      list {
        shape {
        }
      }
    }
  }
  attr {
    key: "dtype"
    value {
      type: DT_FLOAT
    }
  }
  attr {
    key: "value"
    value {
      tensor {
        dtype: DT_FLOAT
        tensor_shape {
        }
        float_val: 0.0
      }
    }
  }
}
node {
  name: "FlowNetSD/conv0/weights/Initializer/truncated_normal/stddev"
  op: "Const"
  attr {
    key: "_class"
    value {
      list {
        s: "loc:@FlowNetSD/conv0/weights"
      }
    }
  }
  attr {
    key: "_output_shapes"
    value {
      list {
        shape {
        }
      }
    }
  }
  attr {
    key: "dtype"
    value {
      type: DT_FLOAT
    }
  }
  attr {
    key: "value"
    value {
      tensor {
        dtype: DT_FLOAT
        tensor_shape {
        }
        float_val: 0.21942686
      }
    }
  }
}
node {
  name: "FlowNetSD/conv0/weights/Initializer/truncated_normal/TruncatedNormal"
  op: "TruncatedNormal"
  input: "FlowNetSD/conv0/weights/Initializer/truncated_normal/shape"
  attr {
    key: "T"
    value {
      type: DT_INT32
    }
  }
  attr {
    key: "_class"
    value {
      list {
        s: "loc:@FlowNetSD/conv0/weights"
      }
    }
  }
  attr {
    key: "_output_shapes"
    value {
      list {
        shape {
          dim {
            size: 3
          }
          dim {
            size: 3
          }
          dim {
            size: 6
          }
          dim {
            size: 64
          }
        }
      }
    }
  }
  attr {
    key: "dtype"
    value {
      type: DT_FLOAT
    }
  }
  attr {
    key: "seed"
    value {
      i: 0
    }
  }
  attr {
    key: "seed2"
    value {
      i: 0
    }
  }
}
node {
  name: "FlowNetSD/conv0/weights/Initializer/truncated_normal/mul"
  op: "Mul"
  input: "FlowNetSD/conv0/weights/Initializer/truncated_normal/TruncatedNormal"
  input: "FlowNetSD/conv0/weights/Initializer/truncated_normal/stddev"
  attr {
    key: "T"
    value {
      type: DT_FLOAT
    }
  }
  attr {
    key: "_class"
    value {
      list {
        s: "loc:@FlowNetSD/conv0/weights"
      }
    }
  }
  attr {
    key: "_output_shapes"
    value {
      list {
        shape {
          dim {
            size: 3
          }
          dim {
            size: 3
          }
          dim {
            size: 6
          }
          dim {
            size: 64
          }
        }
      }
    }
  }
}
node {
  name: "FlowNetSD/conv0/weights/Initializer/truncated_normal"
  op: "Add"
  input: "FlowNetSD/conv0/weights/Initializer/truncated_normal/mul"
  input: "FlowNetSD/conv0/weights/Initializer/truncated_normal/mean"
  attr {
    key: "T"
    value {
      type: DT_FLOAT
    }
  }
  attr {
    key: "_class"
    value {
      list {
        s: "loc:@FlowNetSD/conv0/weights"
      }
    }
  }
  attr {
    key: "_output_shapes"
    value {
      list {
        shape {
          dim {
            size: 3
          }
          dim {
            size: 3
          }
          dim {
            size: 6
          }
          dim {
            size: 64
          }
        }
      }
    }
  }
}
node {
  name: "FlowNetSD/conv0/weights"
  op: "VariableV2"
  attr {
    key: "_class"
    value {
      list {
        s: "loc:@FlowNetSD/conv0/weights"
      }
    }
  }
  attr {
    key: "_output_shapes"
    value {
      list {
        shape {
          dim {
            size: 3
          }
          dim {
            size: 3
          }
          dim {
            size: 6
          }
          dim {
            size: 64
          }
        }
      }
    }
  }
  attr {
    key: "container"
    value {
      s: ""
    }
  }
  attr {
    key: "dtype"
    value {
      type: DT_FLOAT
    }
  }
  attr {
    key: "shape"
    value {
      shape {
        dim {
          size: 3
        }
        dim {
          size: 3
        }
        dim {
          size: 6
        }
        dim {
          size: 64
        }
      }
    }
  }
  attr {
    key: "shared_name"
    value {
      s: ""
    }
  }
}
node {
  name: "FlowNetSD/conv0/weights/Assign"
  op: "Assign"
  input: "FlowNetSD/conv0/weights"
  input: "FlowNetSD/conv0/weights/Initializer/truncated_normal"
  attr {
    key: "T"
    value {
      type: DT_FLOAT
    }
  }
  attr {
    key: "_class"
    value {
      list {
        s: "loc:@FlowNetSD/conv0/weights"
      }
    }
  }
  attr {
    key: "_output_shapes"
    value {
      list {
        shape {
          dim {
            size: 3
          }
          dim {
            size: 3
          }
          dim {
            size: 6
          }
          dim {
            size: 64
          }
        }
      }
    }
  }
  attr {
    key: "use_locking"
    value {
      b: true
    }
  }
  attr {
    key: "validate_shape"
    value {
      b: true
    }
  }
}
node {
  name: "FlowNetSD/conv0/weights/read"
  op: "Identity"
  input: "FlowNetSD/conv0/weights"
  attr {
    key: "T"
    value {
      type: DT_FLOAT
    }
  }
  attr {
    key: "_class"
    value {
      list {
        s: "loc:@FlowNetSD/conv0/weights"
      }
    }
  }
  attr {
    key: "_output_shapes"
    value {
      list {
        shape {
          dim {
            size: 3
          }
          dim {
            size: 3
          }
          dim {
            size: 6
          }
          dim {
            size: 64
          }
        }
      }
    }
  }
}
node {
  name: "FlowNetSD/conv0/kernel/Regularizer/l2_regularizer/scale"
  op: "Const"
  attr {
    key: "_class"
    value {
      list {
        s: "loc:@FlowNetSD/conv0/weights"
      }
    }
  }
  attr {
    key: "_output_shapes"
    value {
      list {
        shape {
        }
      }
    }
  }
  attr {
    key: "dtype"
    value {
      type: DT_FLOAT
    }
  }
  attr {
    key: "value"
    value {
      tensor {
        dtype: DT_FLOAT
        tensor_shape {
        }
        float_val: 0.0004
      }
    }
  }
}
node {
  name: "FlowNetSD/conv0/kernel/Regularizer/l2_regularizer/L2Loss"
  op: "L2Loss"
  input: "FlowNetSD/conv0/weights/read"
  attr {
    key: "T"
    value {
      type: DT_FLOAT
    }
  }
  attr {
    key: "_class"
    value {
      list {
        s: "loc:@FlowNetSD/conv0/weights"
      }
    }
  }
  attr {
    key: "_output_shapes"
    value {
      list {
        shape {
        }
      }
    }
  }
}
node {
  name: "FlowNetSD/conv0/kernel/Regularizer/l2_regularizer"
  op: "Mul"
  input: "FlowNetSD/conv0/kernel/Regularizer/l2_regularizer/scale"
  input: "FlowNetSD/conv0/kernel/Regularizer/l2_regularizer/L2Loss"
  attr {
    key: "T"
    value {
      type: DT_FLOAT
    }
  }
  attr {
    key: "_class"
    value {
      list {
        s: "loc:@FlowNetSD/conv0/weights"
      }
    }
  }
  attr {
    key: "_output_shapes"
    value {
      list {
        shape {
        }
      }
    }
  }
}
node {
  name: "FlowNetSD/conv0/biases/Initializer/zeros"
  op: "Const"
  attr {
    key: "_class"
    value {
      list {
        s: "loc:@FlowNetSD/conv0/biases"
      }
    }
  }
  attr {
    key: "_output_shapes"
    value {
      list {
        shape {
          dim {
            size: 64
          }
        }
      }
    }
  }
  attr {
    key: "dtype"
    value {
      type: DT_FLOAT
    }
  }
  attr {
    key: "value"
    value {
      tensor {
        dtype: DT_FLOAT
        tensor_shape {
          dim {
            size: 64
          }
        }
        float_val: 0.0
      }
    }
  }
}
node {
  name: "FlowNetSD/conv0/biases"
  op: "VariableV2"
  attr {
    key: "_class"
    value {
      list {
        s: "loc:@FlowNetSD/conv0/biases"
      }
    }
  }
  attr {
    key: "_output_shapes"
    value {
      list {
        shape {
          dim {
            size: 64
          }
        }
      }
    }
  }
  attr {
    key: "container"
    value {
      s: ""
    }
  }
  attr {
    key: "dtype"
    value {
      type: DT_FLOAT
    }
  }
  attr {
    key: "shape"
    value {
      shape {
        dim {
          size: 64
        }
      }
    }
  }
  attr {
    key: "shared_name"
    value {
      s: ""
    }
  }
}
node {
  name: "FlowNetSD/conv0/biases/Assign"
  op: "Assign"
  input: "FlowNetSD/conv0/biases"
  input: "FlowNetSD/conv0/biases/Initializer/zeros"
  attr {
    key: "T"
    value {
      type: DT_FLOAT
    }
  }
  attr {
    key: "_class"
    value {
      list {
        s: "loc:@FlowNetSD/conv0/biases"
      }
    }
  }
  attr {
    key: "_output_shapes"
    value {
      list {
        shape {
          dim {
            size: 64
          }
        }
      }
    }
  }
  attr {
    key: "use_locking"
    value {
      b: true
    }
  }
  attr {
    key: "validate_shape"
    value {
      b: true
    }
  }
}
node {
  name: "FlowNetSD/conv0/biases/read"
  op: "Identity"
  input: "FlowNetSD/conv0/biases"
  attr {
    key: "T"
    value {
      type: DT_FLOAT
    }
  }
  attr {
    key: "_class"
    value {
      list {
        s: "loc:@FlowNetSD/conv0/biases"
      }
    }
  }
  attr {
    key: "_output_shapes"
    value {
      list {
        shape {
          dim {
            size: 64
          }
        }
      }
    }
  }
}
node {
  name: "FlowNetSD/conv0/dilation_rate"
  op: "Const"
  attr {
    key: "_output_shapes"
    value {
      list {
        shape {
          dim {
            size: 2
          }
        }
      }
    }
  }
  attr {
    key: "dtype"
    value {
      type: DT_INT32
    }
  }
  attr {
    key: "value"
    value {
      tensor {
        dtype: DT_INT32
        tensor_shape {
          dim {
            size: 2
          }
        }
        tensor_content: "\001\000\000\000\001\000\000\000"
      }
    }
  }
}
node {
  name: "FlowNetSD/conv0/Conv2D"
  op: "Conv2D"
  input: "FlowNetSD/Pad"
  input: "FlowNetSD/conv0/weights/read"
  attr {
    key: "T"
    value {
      type: DT_FLOAT
    }
  }
  attr {
    key: "_output_shapes"
    value {
      list {
        shape {
          dim {
            size: 8
          }
          dim {
            size: 320
          }
          dim {
            size: 448
          }
          dim {
            size: 64
          }
        }
      }
    }
  }
  attr {
    key: "data_format"
    value {
      s: "NHWC"
    }
  }
  attr {
    key: "dilations"
    value {
      list {
        i: 1
        i: 1
        i: 1
        i: 1
      }
    }
  }
  attr {
    key: "padding"
    value {
      s: "VALID"
    }
  }
  attr {
    key: "strides"
    value {
      list {
        i: 1
        i: 1
        i: 1
        i: 1
      }
    }
  }
  attr {
    key: "use_cudnn_on_gpu"
    value {
      b: true
    }
  }
}
node {
  name: "FlowNetSD/conv0/BiasAdd"
  op: "BiasAdd"
  input: "FlowNetSD/conv0/Conv2D"
  input: "FlowNetSD/conv0/biases/read"
  attr {
    key: "T"
    value {
      type: DT_FLOAT
    }
  }
  attr {
    key: "_output_shapes"
    value {
      list {
        shape {
          dim {
            size: 8
          }
          dim {
            size: 320
          }
          dim {
            size: 448
          }
          dim {
            size: 64
          }
        }
      }
    }
  }
  attr {
    key: "data_format"
    value {
      s: "NHWC"
    }
  }
}
node {
  name: "FlowNetSD/conv0/lrelu/mul/x"
  op: "Const"
  attr {
    key: "_output_shapes"
    value {
      list {
        shape {
        }
      }
    }
  }
  attr {
    key: "dtype"
    value {
      type: DT_FLOAT
    }
  }
  attr {
    key: "value"
    value {
      tensor {
        dtype: DT_FLOAT
        tensor_shape {
        }
        float_val: 0.55
      }
    }
  }
}
node {
  name: "FlowNetSD/conv0/lrelu/mul"
  op: "Mul"
  input: "FlowNetSD/conv0/lrelu/mul/x"
  input: "FlowNetSD/conv0/BiasAdd"
  attr {
    key: "T"
    value {
      type: DT_FLOAT
    }
  }
  attr {
    key: "_output_shapes"
    value {
      list {
        shape {
          dim {
            size: 8
          }
          dim {
            size: 320
          }
          dim {
            size: 448
          }
          dim {
            size: 64
          }
        }
      }
    }
  }
}
node {
  name: "FlowNetSD/conv0/lrelu/Abs"
  op: "Abs"
  input: "FlowNetSD/conv0/BiasAdd"
  attr {
    key: "T"
    value {
      type: DT_FLOAT
    }
  }
  attr {
    key: "_output_shapes"
    value {
      list {
        shape {
          dim {
            size: 8
          }
          dim {
            size: 320
          }
          dim {
            size: 448
          }
          dim {
            size: 64
          }
        }
      }
    }
  }
}
node {
  name: "FlowNetSD/conv0/lrelu/mul_1/x"
  op: "Const"
  attr {
    key: "_output_shapes"
    value {
      list {
        shape {
        }
      }
    }
  }
  attr {
    key: "dtype"
    value {
      type: DT_FLOAT
    }
  }
  attr {
    key: "value"
    value {
      tensor {
        dtype: DT_FLOAT
        tensor_shape {
        }
        float_val: 0.45
      }
    }
  }
}
node {
  name: "FlowNetSD/conv0/lrelu/mul_1"
  op: "Mul"
  input: "FlowNetSD/conv0/lrelu/mul_1/x"
  input: "FlowNetSD/conv0/lrelu/Abs"
  attr {
    key: "T"
    value {
      type: DT_FLOAT
    }
  }
  attr {
    key: "_output_shapes"
    value {
      list {
        shape {
          dim {
            size: 8
          }
          dim {
            size: 320
          }
          dim {
            size: 448
          }
          dim {
            size: 64
          }
        }
      }
    }
  }
}
node {
  name: "FlowNetSD/conv0/lrelu/add"
  op: "Add"
  input: "FlowNetSD/conv0/lrelu/mul"
  input: "FlowNetSD/conv0/lrelu/mul_1"
  attr {
    key: "T"
    value {
      type: DT_FLOAT
    }
  }
  attr {
    key: "_output_shapes"
    value {
      list {
        shape {
          dim {
            size: 8
          }
          dim {
            size: 320
          }
          dim {
            size: 448
          }
          dim {
            size: 64
          }
        }
      }
    }
  }
}
node {
  name: "FlowNetSD/Pad_1/paddings"
  op: "Const"
  attr {
    key: "_output_shapes"
    value {
      list {
        shape {
          dim {
            size: 4
          }
          dim {
            size: 2
          }
        }
      }
    }
  }
  attr {
    key: "dtype"
    value {
      type: DT_INT32
    }
  }
  attr {
    key: "value"
    value {
      tensor {
        dtype: DT_INT32
        tensor_shape {
          dim {
            size: 4
          }
          dim {
            size: 2
          }
        }
        tensor_content: "…"
      }
    }
  }
}
node {
  name: "FlowNetSD/Pad_1"
  op: "Pad"
  input: "FlowNetSD/conv0/lrelu/add"
  input: "FlowNetSD/Pad_1/paddings"
  attr {
    key: "T"
    value {
      type: DT_FLOAT
    }
  }
  attr {
    key: "Tpaddings"
    value {
      type: DT_INT32
    }
  }
  attr {
    key: "_output_shapes"
    value {
      list {
        shape {
          dim {
            size: 8
          }
          dim {
            size: 322
          }
          dim {
            size: 450
          }
          dim {
            size: 64
          }
        }
      }
    }
  }
}
node {
  name: "FlowNetSD/conv1/weights/Initializer/truncated_normal/shape"
  op: "Const"
  attr {
    key: "_class"
    value {
      list {
        s: "loc:@FlowNetSD/conv1/weights"
      }
    }
  }
  attr {
    key: "_output_shapes"
    value {
      list {
        shape {
          dim {
            size: 4
          }
        }
      }
    }
  }
  attr {
    key: "dtype"
    value {
      type: DT_INT32
    }
  }
  attr {
    key: "value"
    value {
      tensor {
        dtype: DT_INT32
        tensor_shape {
          dim {
            size: 4
          }
        }
        tensor_content: "\003\000\000\000\003\000\000\000@\000\000\000@\000\000\000"
      }
    }
  }
}
node {
  name: "FlowNetSD/conv1/weights/Initializer/truncated_normal/mean"
  op: "Const"
  attr {
    key: "_class"
    value {
      list {
        s: "loc:@FlowNetSD/conv1/weights"
      }
    }
  }
  attr {
    key: "_output_shapes"
    value {
      list {
        shape {
        }
      }
    }
  }
  attr {
    key: "dtype"
    value {
      type: DT_FLOAT
    }
  }
  attr {
    key: "value"
    value {
      tensor {
        dtype: DT_FLOAT
        tensor_shape {
        }
        float_val: 0.0
      }
    }
  }
}
node {
  name: "FlowNetSD/conv1/weights/Initializer/truncated_normal/stddev"
  op: "Const"
  attr {
    key: "_class"
    value {
      list {
        s: "loc:@FlowNetSD/conv1/weights"
      }
    }
  }
  attr {
    key: "_output_shapes"
    value {
      list {
        shape {
        }
      }
    }
  }
  attr {
    key: "dtype"
    value {
      type: DT_FLOAT
    }
  }
  attr {
    key: "value"
    value {
      tensor {
        dtype: DT_FLOAT
        tensor_shape {
        }
        float_val: 0.067185484
      }
    }
  }
}
node {
  name: "FlowNetSD/conv1/weights/Initializer/truncated_normal/TruncatedNormal"
  op: "TruncatedNormal"
  input: "FlowNetSD/conv1/weights/Initializer/truncated_normal/shape"
  attr {
    key: "T"
    value {
      type: DT_INT32
    }
  }
  attr {
    key: "_class"
    value {
      list {
        s: "loc:@FlowNetSD/conv1/weights"
      }
    }
  }
  attr {
    key: "_output_shapes"
    value {
      list {
        shape {
          dim {
            size: 3
          }
          dim {
            size: 3
          }
          dim {
            size: 64
          }
          dim {
            size: 64
          }
        }
      }
    }
  }
  attr {
    key: "dtype"
    value {
      type: DT_FLOAT
    }
  }
  attr {
    key: "seed"
    value {
      i: 0
    }
  }
  attr {
    key: "seed2"
    value {
      i: 0
    }
  }
}
node {
  name: "FlowNetSD/conv1/weights/Initializer/truncated_normal/mul"
  op: "Mul"
  input: "FlowNetSD/conv1/weights/Initializer/truncated_normal/TruncatedNormal"
  input: "FlowNetSD/conv1/weights/Initializer/truncated_normal/stddev"
  attr {
    key: "T"
    value {
      type: DT_FLOAT
    }
  }
  attr {
    key: "_class"
    value {
      list {
        s: "loc:@FlowNetSD/conv1/weights"
      }
    }
  }
  attr {
    key: "_output_shapes"
    value {
      list {
        shape {
          dim {
            size: 3
          }
          dim {
            size: 3
          }
          dim {
            size: 64
          }
          dim {
            size: 64
          }
        }
      }
    }
  }
}
node {
  name: "FlowNetSD/conv1/weights/Initializer/truncated_normal"
  op: "Add"
  input: "FlowNetSD/conv1/weights/Initializer/truncated_normal/mul"
  input: "FlowNetSD/conv1/weights/Initializer/truncated_normal/mean"
  attr {
    key: "T"
    value {
      type: DT_FLOAT
    }
  }
  attr {
    key: "_class"
    value {
      list {
        s: "loc:@FlowNetSD/conv1/weights"
      }
    }
  }
  attr {
    key: "_output_shapes"
    value {
      list {
        shape {
…
  input: "FlowNetSD/interconv2/biases/Adam_1"
  attr {
    key: "_class"
    value {
      list {
        s: "loc:@FlowNetSD/interconv2/biases"
      }
    }
  }
  attr {
    key: "_output_shapes"
    value {
      list {
        shape {
        }
      }
    }
  }
  attr {
    key: "dtype"
    value {
      type: DT_FLOAT
    }
  }
}
node {
  name: "init_ops/report_uninitialized_variables/IsVariableInitialized_155"
  op: "IsVariableInitialized"
  input: "FlowNetSD/predict_flow2/weights/Adam"
  attr {
    key: "_class"
    value {
      list {
        s: "loc:@FlowNetSD/predict_flow2/weights"
      }
    }
  }
  attr {
    key: "_output_shapes"
    value {
      list {
        shape {
        }
      }
    }
  }
  attr {
    key: "dtype"
    value {
      type: DT_FLOAT
    }
  }
}
node {
  name: "init_ops/report_uninitialized_variables/IsVariableInitialized_156"
  op: "IsVariableInitialized"
  input: "FlowNetSD/predict_flow2/weights/Adam_1"
  attr {
    key: "_class"
    value {
      list {
        s: "loc:@FlowNetSD/predict_flow2/weights"
      }
    }
  }
  attr {
    key: "_output_shapes"
    value {
      list {
        shape {
        }
      }
    }
  }
  attr {
    key: "dtype"
    value {
      type: DT_FLOAT
    }
  }
}
node {
  name: "init_ops/report_uninitialized_variables/IsVariableInitialized_157"
  op: "IsVariableInitialized"
  input: "FlowNetSD/predict_flow2/biases/Adam"
  attr {
    key: "_class"
    value {
      list {
        s: "loc:@FlowNetSD/predict_flow2/biases"
      }
    }
  }
  attr {
    key: "_output_shapes"
    value {
      list {
        shape {
        }
      }
    }
  }
  attr {
    key: "dtype"
    value {
      type: DT_FLOAT
    }
  }
}
node {
  name: "init_ops/report_uninitialized_variables/IsVariableInitialized_158"
  op: "IsVariableInitialized"
  input: "FlowNetSD/predict_flow2/biases/Adam_1"
  attr {
    key: "_class"
    value {
      list {
        s: "loc:@FlowNetSD/predict_flow2/biases"
      }
    }
  }
  attr {
    key: "_output_shapes"
    value {
      list {
        shape {
        }
      }
    }
  }
  attr {
    key: "dtype"
    value {
      type: DT_FLOAT
    }
  }
}
node {
  name: "init_ops/report_uninitialized_variables/stack"
  op: "Pack"
  input: "init_ops/report_uninitialized_variables/IsVariableInitialized"
  input: "init_ops/report_uninitialized_variables/IsVariableInitialized_1"
  input: "init_ops/report_uninitialized_variables/IsVariableInitialized_2"
  input: "init_ops/report_uninitialized_variables/IsVariableInitialized_3"
  input: "init_ops/report_uninitialized_variables/IsVariableInitialized_4"
  input: "init_ops/report_uninitialized_variables/IsVariableInitialized_5"
  input: "init_ops/report_uninitialized_variables/IsVariableInitialized_6"
  input: "init_ops/report_uninitialized_variables/IsVariableInitialized_7"
  input: "init_ops/report_uninitialized_variables/IsVariableInitialized_8"
  input: "init_ops/report_uninitialized_variables/IsVariableInitialized_9"
  input: "init_ops/report_uninitialized_variables/IsVariableInitialized_10"
  input: "init_ops/report_uninitialized_variables/IsVariableInitialized_11"
  input: "init_ops/report_uninitialized_variables/IsVariableInitialized_12"
  input: "init_ops/report_uninitialized_variables/IsVariableInitialized_13"
  input: "init_ops/report_uninitialized_variables/IsVariableInitialized_14"
  input: "init_ops/report_uninitialized_variables/IsVariableInitialized_15"
  input: "init_ops/report_uninitialized_variables/IsVariableInitialized_16"
  input: "init_ops/report_uninitialized_variables/IsVariableInitialized_17"
  input: "init_ops/report_uninitialized_variables/IsVariableInitialized_18"
  input: "init_ops/report_uninitialized_variables/IsVariableInitialized_19"
  input: "init_ops/report_uninitialized_variables/IsVariableInitialized_20"
  input: "init_ops/report_uninitialized_variables/IsVariableInitialized_21"
  input: "init_ops/report_uninitialized_variables/IsVariableInitialized_22"
  input: "init_ops/report_uninitialized_variables/IsVariableInitialized_23"
  input: "init_ops/report_uninitialized_variables/IsVariableInitialized_24"
  input: "init_ops/report_uninitialized_variables/IsVariableInitialized_25"
  input: "init_ops/report_uninitialized_variables/IsVariableInitialized_26"
  input: "init_ops/report_uninitialized_variables/IsVariableInitialized_27"
  input: "init_ops/report_uninitialized_variables/IsVariableInitialized_28"
  input: "init_ops/report_uninitialized_variables/IsVariableInitialized_29"
  input: "init_ops/report_uninitialized_variables/IsVariableInitialized_30"
  input: "init_ops/report_uninitialized_variables/IsVariableInitialized_31"
  input: "init_ops/report_uninitialized_variables/IsVariableInitialized_32"
  input: "init_ops/report_uninitialized_variables/IsVariableInitialized_33"
  input: "init_ops/report_uninitialized_variables/IsVariableInitialized_34"
  input: "init_ops/report_uninitialized_variables/IsVariableInitialized_35"
  input: "init_ops/report_uninitialized_variables/IsVariableInitialized_36"
  input: "init_ops/report_uninitialized_variables/IsVariableInitialized_37"
  input: "init_ops/report_uninitialized_variables/IsVariableInitialized_38"
  input: "init_ops/report_uninitialized_variables/IsVariableInitialized_39"
  input: "init_ops/report_uninitialized_variables/IsVariableInitialized_40"
  input: "init_ops/report_uninitialized_variables/IsVariableInitialized_41"
  input: "init_ops/report_uninitialized_variables/IsVariableInitialized_42"
  input: "init_ops/report_uninitialized_variables/IsVariableInitialized_43"
  input: "init_ops/report_uninitialized_variables/IsVariableInitialized_44"
  input: "init_ops/report_uninitialized_variables/IsVariableInitialized_45"
  input: "init_ops/report_uninitialized_variables/IsVariableInitialized_46"
  input: "init_ops/report_uninitialized_variables/IsVariableInitialized_47"
  input: "init_ops/report_uninitialized_variables/IsVariableInitialized_48"
  input: "init_ops/report_uninitialized_variables/IsVariableInitialized_49"
  input: "init_ops/report_uninitialized_variables/IsVariableInitialized_50"
  input: "init_ops/report_uninitialized_variables/IsVariableInitialized_51"
  input: "init_ops/report_uninitialized_variables/IsVariableInitialized_52"
  input: "init_ops/report_uninitialized_variables/IsVariableInitialized_53"
  input: "init_ops/report_uninitialized_variables/IsVariableInitialized_54"
  input: "init_ops/report_uninitialized_variables/IsVariableInitialized_55"
  input: "init_ops/report_uninitialized_variables/IsVariableInitialized_56"
  input: "init_ops/report_uninitialized_variables/IsVariableInitialized_57"
  input: "init_ops/report_uninitialized_variables/IsVariableInitialized_58"
  input: "init_ops/report_uninitialized_variables/IsVariableInitialized_59"
  input: "init_ops/report_uninitialized_variables/IsVariableInitialized_60"
  input: "init_ops/report_uninitialized_variables/IsVariableInitialized_61"
  input: "init_ops/report_uninitialized_variables/IsVariableInitialized_62"
  input: "init_ops/report_uninitialized_variables/IsVariableInitialized_63"
  input: "init_ops/report_uninitialized_variables/IsVariableInitialized_64"
  input: "init_ops/report_uninitialized_variables/IsVariableInitialized_65"
  input: "init_ops/report_uninitialized_variables/IsVariableInitialized_66"
  input: "init_ops/report_uninitialized_variables/IsVariableInitialized_67"
  input: "init_ops/report_uninitialized_variables/IsVariableInitialized_68"
  input: "init_ops/report_uninitialized_variables/IsVariableInitialized_69"
  input: "init_ops/report_uninitialized_variables/IsVariableInitialized_70"
  input: "init_ops/report_uninitialized_variables/IsVariableInitialized_71"
  input: "init_ops/report_uninitialized_variables/IsVariableInitialized_72"
  input: "init_ops/report_uninitialized_variables/IsVariableInitialized_73"
  input: "init_ops/report_uninitialized_variables/IsVariableInitialized_74"
  input: "init_ops/report_uninitialized_variables/IsVariableInitialized_75"
  input: "init_ops/report_uninitialized_variables/IsVariableInitialized_76"
  input: "init_ops/report_uninitialized_variables/IsVariableInitialized_77"
  input: "init_ops/report_uninitialized_variables/IsVariableInitialized_78"
  input: "init_ops/report_uninitialized_variables/IsVariableInitialized_79"
  input: "init_ops/report_uninitialized_variables/IsVariableInitialized_80"
  input: "init_ops/report_uninitialized_variables/IsVariableInitialized_81"
  input: "init_ops/report_uninitialized_variables/IsVariableInitialized_82"
  input: "init_ops/report_uninitialized_variables/IsVariableInitialized_83"
  input: "init_ops/report_uninitialized_variables/IsVariableInitialized_84"
  input: "init_ops/report_uninitialized_variables/IsVariableInitialized_85"
  input: "init_ops/report_uninitialized_variables/IsVariableInitialized_86"
  input: "init_ops/report_uninitialized_variables/IsVariableInitialized_87"
  input: "init_ops/report_uninitialized_variables/IsVariableInitialized_88"
  input: "init_ops/report_uninitialized_variables/IsVariableInitialized_89"
  input: "init_ops/report_uninitialized_variables/IsVariableInitialized_90"
  input: "init_ops/report_uninitialized_variables/IsVariableInitialized_91"
  input: "init_ops/report_uninitialized_variables/IsVariableInitialized_92"
  input: "init_ops/report_uninitialized_variables/IsVariableInitialized_93"
  input: "init_ops/report_uninitialized_variables/IsVariableInitialized_94"
  input: "init_ops/report_uninitialized_variables/IsVariableInitialized_95"
  input: "init_ops/report_uninitialized_variables/IsVariableInitialized_96"
  input: "init_ops/report_uninitialized_variables/IsVariableInitialized_97"
  input: "init_ops/report_uninitialized_variables/IsVariableInitialized_98"
  input: "init_ops/report_uninitialized_variables/IsVariableInitialized_99"
  input: "init_ops/report_uninitialized_variables/IsVariableInitialized_100"
  input: "init_ops/report_uninitialized_variables/IsVariableInitialized_101"
  input: "init_ops/report_uninitialized_variables/IsVariableInitialized_102"
  input: "init_ops/report_uninitialized_variables/IsVariableInitialized_103"
  input: "init_ops/report_uninitialized_variables/IsVariableInitialized_104"
  input: "init_ops/report_uninitialized_variables/IsVariableInitialized_105"
  input: "init_ops/report_uninitialized_variables/IsVariableInitialized_106"
  input: "init_ops/report_uninitialized_variables/IsVariableInitialized_107"
  input: "init_ops/report_uninitialized_variables/IsVariableInitialized_108"
  input: "init_ops/report_uninitialized_variables/IsVariableInitialized_109"
  input: "init_ops/report_uninitialized_variables/IsVariableInitialized_110"
  input: "init_ops/report_uninitialized_variables/IsVariableInitialized_111"
  input: "init_ops/report_uninitialized_variables/IsVariableInitialized_112"
  input: "init_ops/report_uninitialized_variables/IsVariableInitialized_113"
  input: "init_ops/report_uninitialized_variables/IsVariableInitialized_114"
  input: "init_ops/report_uninitialized_variables/IsVariableInitialized_115"
  input: "init_ops/report_uninitialized_variables/IsVariableInitialized_116"
  input: "init_ops/report_uninitialized_variables/IsVariableInitialized_117"
  input: "init_ops/report_uninitialized_variables/IsVariableInitialized_118"
  input: "init_ops/report_uninitialized_variables/IsVariableInitialized_119"
  input: "init_ops/report_uninitialized_variables/IsVariableInitialized_120"
  input: "init_ops/report_uninitialized_variables/IsVariableInitialized_121"
  input: "init_ops/report_uninitialized_variables/IsVariableInitialized_122"
  input: "init_ops/report_uninitialized_variables/IsVariableInitialized_123"
  input: "init_ops/report_uninitialized_variables/IsVariableInitialized_124"
  input: "init_ops/report_uninitialized_variables/IsVariableInitialized_125"
  input: "init_ops/report_uninitialized_variables/IsVariableInitialized_126"
  input: "init_ops/report_uninitialized_variables/IsVariableInitialized_127"
  input: "init_ops/report_uninitialized_variables/IsVariableInitialized_128"
  input: "init_ops/report_uninitialized_variables/IsVariableInitialized_129"
  input: "init_ops/report_uninitialized_variables/IsVariableInitialized_130"
  input: "init_ops/report_uninitialized_variables/IsVariableInitialized_131"
  input: "init_ops/report_uninitialized_variables/IsVariableInitialized_132"
  input: "init_ops/report_uninitialized_variables/IsVariableInitialized_133"
  input: "init_ops/report_uninitialized_variables/IsVariableInitialized_134"
  input: "init_ops/report_uninitialized_variables/IsVariableInitialized_135"
  input: "init_ops/report_uninitialized_variables/IsVariableInitialized_136"
  input: "init_ops/report_uninitialized_variables/IsVariableInitialized_137"
  input: "init_ops/report_uninitialized_variables/IsVariableInitialized_138"
  input: "init_ops/report_uninitialized_variables/IsVariableInitialized_139"
  input: "init_ops/report_uninitialized_variables/IsVariableInitialized_140"
  input: "init_ops/report_uninitialized_variables/IsVariableInitialized_141"
  input: "init_ops/report_uninitialized_variables/IsVariableInitialized_142"
  input: "init_ops/report_uninitialized_variables/IsVariableInitialized_143"
  input: "init_ops/report_uninitialized_variables/IsVariableInitialized_144"
  input: "init_ops/report_uninitialized_variables/IsVariableInitialized_145"
  input: "init_ops/report_uninitialized_variables/IsVariableInitialized_146"
  input: "init_ops/report_uninitialized_variables/IsVariableInitialized_147"
  input: "init_ops/report_uninitialized_variables/IsVariableInitialized_148"
  input: "init_ops/report_uninitialized_variables/IsVariableInitialized_149"
  input: "init_ops/report_uninitialized_variables/IsVariableInitialized_150"
  input: "init_ops/report_uninitialized_variables/IsVariableInitialized_151"
  input: "init_ops/report_uninitialized_variables/IsVariableInitialized_152"
  input: "init_ops/report_uninitialized_variables/IsVariableInitialized_153"
  input: "init_ops/report_uninitialized_variables/IsVariableInitialized_154"
  input: "init_ops/report_uninitialized_variables/IsVariableInitialized_155"
  input: "init_ops/report_uninitialized_variables/IsVariableInitialized_156"
  input: "init_ops/report_uninitialized_variables/IsVariableInitialized_157"
  input: "init_ops/report_uninitialized_variables/IsVariableInitialized_158"
  device: "/device:CPU:0"
  attr {
    key: "N"
    value {
      i: 159
    }
  }
  attr {
    key: "T"
    value {
      type: DT_BOOL
    }
  }
  attr {
    key: "_output_shapes"
    value {
      list {
        shape {
          dim {
            size: 159
          }
        }
      }
    }
  }
  attr {
    key: "axis"
    value {
      i: 0
    }
  }
}
node {
  name: "init_ops/report_uninitialized_variables/LogicalNot"
  op: "LogicalNot"
  input: "init_ops/report_uninitialized_variables/stack"
  device: "/device:CPU:0"
  attr {
    key: "_output_shapes"
    value {
      list {
        shape {
          dim {
            size: 159
          }
        }
      }
    }
  }
}
node {
  name: "init_ops/report_uninitialized_variables/Const"
  op: "Const"
  device: "/device:CPU:0"
  attr {
    key: "_output_shapes"
    value {
      list {
        shape {
          dim {
            size: 159
          }
        }
      }
    }
  }
  attr {
    key: "dtype"
    value {
      type: DT_STRING
    }
  }
  attr {
    key: "value"
    value {
      tensor {
        dtype: DT_STRING
        tensor_shape {
          dim {
            size: 159
          }
        }
        string_val: "global_step"
        string_val: "FlowNetSD/conv0/weights"
        string_val: "FlowNetSD/conv0/biases"
        string_val: "FlowNetSD/conv1/weights"
        string_val: "FlowNetSD/conv1/biases"
        string_val: "FlowNetSD/conv1_1/weights"
        string_val: "FlowNetSD/conv1_1/biases"
        string_val: "FlowNetSD/conv2/weights"
        string_val: "FlowNetSD/conv2/biases"
        string_val: "FlowNetSD/conv2_1/weights"
        string_val: "FlowNetSD/conv2_1/biases"
        string_val: "FlowNetSD/conv3/weights"
        string_val: "FlowNetSD/conv3/biases"
        string_val: "FlowNetSD/conv3_1/weights"
        string_val: "FlowNetSD/conv3_1/biases"
        string_val: "FlowNetSD/conv4/weights"
        string_val: "FlowNetSD/conv4/biases"
        string_val: "FlowNetSD/conv4_1/weights"
        string_val: "FlowNetSD/conv4_1/biases"
        string_val: "FlowNetSD/conv5/weights"
        string_val: "FlowNetSD/conv5/biases"
        string_val: "FlowNetSD/conv5_1/weights"
        string_val: "FlowNetSD/conv5_1/biases"
        string_val: "FlowNetSD/conv6/weights"
        string_val: "FlowNetSD/conv6/biases"
        string_val: "FlowNetSD/conv6_1/weights"
        string_val: "FlowNetSD/conv6_1/biases"
        string_val: "FlowNetSD/predict_flow6/weights"
        string_val: "FlowNetSD/predict_flow6/biases"
        string_val: "FlowNetSD/deconv5/weights"
        string_val: "FlowNetSD/upsample_flow6to5/weights"
        string_val: "FlowNetSD/interconv5/weights"
        string_val: "FlowNetSD/interconv5/biases"
        string_val: "FlowNetSD/predict_flow5/weights"
        string_val: "FlowNetSD/predict_flow5/biases"
        string_val: "FlowNetSD/deconv4/weights"
        string_val: "FlowNetSD/upsample_flow5to4/weights"
        string_val: "FlowNetSD/interconv4/weights"
        string_val: "FlowNetSD/interconv4/biases"
        string_val: "FlowNetSD/predict_flow4/weights"
        string_val: "FlowNetSD/predict_flow4/biases"
        string_val: "FlowNetSD/deconv3/weights"
        string_val: "FlowNetSD/upsample_flow4to3/weights"
        string_val: "FlowNetSD/interconv3/weights"
        string_val: "FlowNetSD/interconv3/biases"
        string_val: "FlowNetSD/predict_flow3/weights"
        string_val: "FlowNetSD/predict_flow3/biases"
        string_val: "FlowNetSD/deconv2/weights"
        string_val: "FlowNetSD/upsample_flow3to2/weights"
        string_val: "FlowNetSD/interconv2/weights"
        string_val: "FlowNetSD/interconv2/biases"
        string_val: "FlowNetSD/predict_flow2/weights"
        string_val: "FlowNetSD/predict_flow2/biases"
        string_val: "beta1_power"
        string_val: "beta2_power"
        string_val: "FlowNetSD/conv0/weights/Adam"
        string_val: "FlowNetSD/conv0/weights/Adam_1"
        string_val: "FlowNetSD/conv0/biases/Adam"
        string_val: "FlowNetSD/conv0/biases/Adam_1"
        string_val: "FlowNetSD/conv1/weights/Adam"
        string_val: "FlowNetSD/conv1/weights/Adam_1"
        string_val: "FlowNetSD/conv1/biases/Adam"
        string_val: "FlowNetSD/conv1/biases/Adam_1"
        string_val: "FlowNetSD/conv1_1/weights/Adam"
        string_val: "FlowNetSD/conv1_1/weights/Adam_1"
        string_val: "FlowNetSD/conv1_1/biases/Adam"
        string_val: "FlowNetSD/conv1_1/biases/Adam_1"
        string_val: "FlowNetSD/conv2/weights/Adam"
        string_val: "FlowNetSD/conv2/weights/Adam_1"
        string_val: "FlowNetSD/conv2/biases/Adam"
        string_val: "FlowNetSD/conv2/biases/Adam_1"
        string_val: "FlowNetSD/conv2_1/weights/Adam"
        string_val: "FlowNetSD/conv2_1/weights/Adam_1"
        string_val: "FlowNetSD/conv2_1/biases/Adam"
        string_val: "FlowNetSD/conv2_1/biases/Adam_1"
        string_val: "FlowNetSD/conv3/weights/Adam"
        string_val: "FlowNetSD/conv3/weights/Adam_1"
        string_val: "FlowNetSD/conv3/biases/Adam"
        string_val: "FlowNetSD/conv3/biases/Adam_1"
        string_val: "FlowNetSD/conv3_1/weights/Adam"
        string_val: "FlowNetSD/conv3_1/weights/Adam_1"
        string_val: "FlowNetSD/conv3_1/biases/Adam"
        string_val: "FlowNetSD/conv3_1/biases/Adam_1"
        string_val: "FlowNetSD/conv4/weights/Adam"
        string_val: "FlowNetSD/conv4/weights/Adam_1"
        string_val: "FlowNetSD/conv4/biases/Adam"
        string_val: "FlowNetSD/conv4/biases/Adam_1"
        string_val: "FlowNetSD/conv4_1/weights/Adam"
        string_val: "FlowNetSD/conv4_1/weights/Adam_1"
        string_val: "FlowNetSD/conv4_1/biases/Adam"
        string_val: "FlowNetSD/conv4_1/biases/Adam_1"
        string_val: "FlowNetSD/conv5/weights/Adam"
        string_val: "FlowNetSD/conv5/weights/Adam_1"
        string_val: "FlowNetSD/conv5/biases/Adam"
        string_val: "FlowNetSD/conv5/biases/Adam_1"
        string_val: "FlowNetSD/conv5_1/weights/Adam"
        string_val: "FlowNetSD/conv5_1/weights/Adam_1"
        string_val: "FlowNetSD/conv5_1/biases/Adam"
        string_val: "FlowNetSD/conv5_1/biases/Adam_1"
        string_val: "FlowNetSD/conv6/weights/Adam"
        string_val: "FlowNetSD/conv6/weights/Adam_1"
        string_val: "FlowNetSD/conv6/biases/Adam"
        string_val: "FlowNetSD/conv6/biases/Adam_1"
        string_val: "FlowNetSD/conv6_1/weights/Adam"
        string_val: "FlowNetSD/conv6_1/weights/Adam_1"
        string_val: "FlowNetSD/conv6_1/biases/Adam"
        string_val: "FlowNetSD/conv6_1/biases/Adam_1"
        string_val: "FlowNetSD/predict_flow6/weights/Adam"
        string_val: "FlowNetSD/predict_flow6/weights/Adam_1"
        string_val: "FlowNetSD/predict_flow6/biases/Adam"
        string_val: "FlowNetSD/predict_flow6/biases/Adam_1"
        string_val: "FlowNetSD/deconv5/weights/Adam"
        string_val: "FlowNetSD/deconv5/weights/Adam_1"
        string_val: "FlowNetSD/upsample_flow6to5/weights/Adam"
        string_val: "FlowNetSD/upsample_flow6to5/weights/Adam_1"
        string_val: "FlowNetSD/interconv5/weights/Adam"
        string_val: "FlowNetSD/interconv5/weights/Adam_1"
        string_val: "FlowNetSD/interconv5/biases/Adam"
        string_val: "FlowNetSD/interconv5/biases/Adam_1"
        string_val: "FlowNetSD/predict_flow5/weights/Adam"
        string_val: "FlowNetSD/predict_flow5/weights/Adam_1"
        string_val: "FlowNetSD/predict_flow5/biases/Adam"
        string_val: "FlowNetSD/predict_flow5/biases/Adam_1"
        string_val: "FlowNetSD/deconv4/weights/Adam"
        string_val: "FlowNetSD/deconv4/weights/Adam_1"
        string_val: "FlowNetSD/upsample_flow5to4/weights/Adam"
        string_val: "FlowNetSD/upsample_flow5to4/weights/Adam_1"
        string_val: "FlowNetSD/interconv4/weights/Adam"
        string_val: "FlowNetSD/interconv4/weights/Adam_1"
        string_val: "FlowNetSD/interconv4/biases/Adam"
        string_val: "FlowNetSD/interconv4/biases/Adam_1"
        string_val: "FlowNetSD/predict_flow4/weights/Adam"
        string_val: "FlowNetSD/predict_flow4/weights/Adam_1"
        string_val: "FlowNetSD/predict_flow4/biases/Adam"
        string_val: "FlowNetSD/predict_flow4/biases/Adam_1"
        string_val: "FlowNetSD/deconv3/weights/Adam"
        string_val: "FlowNetSD/deconv3/weights/Adam_1"
        string_val: "FlowNetSD/upsample_flow4to3/weights/Adam"
        string_val: "FlowNetSD/upsample_flow4to3/weights/Adam_1"
        string_val: "FlowNetSD/interconv3/weights/Adam"
        string_val: "FlowNetSD/interconv3/weights/Adam_1"
        string_val: "FlowNetSD/interconv3/biases/Adam"
        string_val: "FlowNetSD/interconv3/biases/Adam_1"
        string_val: "FlowNetSD/predict_flow3/weights/Adam"
        string_val: "FlowNetSD/predict_flow3/weights/Adam_1"
        string_val: "FlowNetSD/predict_flow3/biases/Adam"
        string_val: "FlowNetSD/predict_flow3/biases/Adam_1"
        string_val: "FlowNetSD/deconv2/weights/Adam"
        string_val: "FlowNetSD/deconv2/weights/Adam_1"
        string_val: "FlowNetSD/upsample_flow3to2/weights/Adam"
        string_val: "FlowNetSD/upsample_flow3to2/weights/Adam_1"
        string_val: "FlowNetSD/interconv2/weights/Adam"
        string_val: "FlowNetSD/interconv2/weights/Adam_1"
        string_val: "FlowNetSD/interconv2/biases/Adam"
        string_val: "FlowNetSD/interconv2/biases/Adam_1"
        string_val: "FlowNetSD/predict_flow2/weights/Adam"
        string_val: "FlowNetSD/predict_flow2/weights/Adam_1"
        string_val: "FlowNetSD/predict_flow2/biases/Adam"
        string_val: "FlowNetSD/predict_flow2/biases/Adam_1"
      }
    }
  }
}
node {
  name: "init_ops/report_uninitialized_variables/boolean_mask/Shape"
  op: "Const"
  device: "/device:CPU:0"
  attr {
    key: "_output_shapes"
    value {
      list {
        shape {
          dim {
            size: 1
          }
        }
      }
    }
  }
  attr {
    key: "dtype"
    value {
      type: DT_INT32
    }
  }
  attr {
    key: "value"
    value {
      tensor {
        dtype: DT_INT32
        tensor_shape {
          dim {
            size: 1
          }
        }
        int_val: 159
      }
    }
  }
}
node {
  name: "init_ops/report_uninitialized_variables/boolean_mask/strided_slice/stack"
  op: "Const"
  device: "/device:CPU:0"
  attr {
    key: "_output_shapes"
    value {
      list {
        shape {
          dim {
            size: 1
          }
        }
      }
    }
  }
  attr {
    key: "dtype"
    value {
      type: DT_INT32
    }
  }
  attr {
    key: "value"
    value {
      tensor {
        dtype: DT_INT32
        tensor_shape {
          dim {
            size: 1
          }
        }
        int_val: 0
      }
    }
  }
}
node {
  name: "init_ops/report_uninitialized_variables/boolean_mask/strided_slice/stack_1"
  op: "Const"
  device: "/device:CPU:0"
  attr {
    key: "_output_shapes"
    value {
      list {
        shape {
          dim {
            size: 1
          }
        }
      }
    }
  }
  attr {
    key: "dtype"
    value {
      type: DT_INT32
    }
  }
  attr {
    key: "value"
    value {
      tensor {
        dtype: DT_INT32
        tensor_shape {
          dim {
            size: 1
          }
        }
        int_val: 1
      }
    }
  }
}
node {
  name: "init_ops/report_uninitialized_variables/boolean_mask/strided_slice/stack_2"
  op: "Const"
  device: "/device:CPU:0"
  attr {
    key: "_output_shapes"
    value {
      list {
        shape {
          dim {
            size: 1
          }
        }
      }
    }
  }
  attr {
    key: "dtype"
    value {
      type: DT_INT32
    }
  }
  attr {
    key: "value"
    value {
      tensor {
        dtype: DT_INT32
        tensor_shape {
          dim {
            size: 1
          }
        }
        int_val: 1
      }
    }
  }
}
node {
  name: "init_ops/report_uninitialized_variables/boolean_mask/strided_slice"
  op: "StridedSlice"
  input: "init_ops/report_uninitialized_variables/boolean_mask/Shape"
  input: "init_ops/report_uninitialized_variables/boolean_mask/strided_slice/stack"
  input: "init_ops/report_uninitialized_variables/boolean_mask/strided_slice/stack_1"
  input: "init_ops/report_uninitialized_variables/boolean_mask/strided_slice/stack_2"
  device: "/device:CPU:0"
  attr {
    key: "Index"
    value {
      type: DT_INT32
    }
  }
  attr {
    key: "T"
    value {
      type: DT_INT32
    }
  }
  attr {
    key: "_output_shapes"
    value {
      list {
        shape {
          dim {
            size: 1
          }
        }
      }
    }
  }
  attr {
    key: "begin_mask"
    value {
      i: 0
    }
  }
  attr {
    key: "ellipsis_mask"
    value {
      i: 0
    }
  }
  attr {
    key: "end_mask"
    value {
      i: 0
    }
  }
  attr {
    key: "new_axis_mask"
    value {
      i: 0
    }
  }
  attr {
    key: "shrink_axis_mask"
    value {
      i: 0
    }
  }
}
node {
  name: "init_ops/report_uninitialized_variables/boolean_mask/Prod/reduction_indices"
  op: "Const"
  device: "/device:CPU:0"
  attr {
    key: "_output_shapes"
    value {
      list {
        shape {
          dim {
            size: 1
          }
        }
      }
    }
  }
  attr {
    key: "dtype"
    value {
      type: DT_INT32
    }
  }
  attr {
    key: "value"
    value {
      tensor {
        dtype: DT_INT32
        tensor_shape {
          dim {
            size: 1
          }
        }
        int_val: 0
      }
    }
  }
}
node {
  name: "init_ops/report_uninitialized_variables/boolean_mask/Prod"
  op: "Prod"
  input: "init_ops/report_uninitialized_variables/boolean_mask/strided_slice"
  input: "init_ops/report_uninitialized_variables/boolean_mask/Prod/reduction_indices"
  device: "/device:CPU:0"
  attr {
    key: "T"
    value {
      type: DT_INT32
    }
  }
  attr {
    key: "Tidx"
    value {
      type: DT_INT32
    }
  }
  attr {
    key: "_output_shapes"
    value {
      list {
        shape {
        }
      }
    }
  }
  attr {
    key: "keep_dims"
    value {
      b: false
    }
  }
}
node {
  name: "init_ops/report_uninitialized_variables/boolean_mask/Shape_1"
  op: "Const"
  device: "/device:CPU:0"
  attr {
    key: "_output_shapes"
    value {
      list {
        shape {
          dim {
            size: 1
          }
        }
      }
    }
  }
  attr {
    key: "dtype"
    value {
      type: DT_INT32
    }
  }
  attr {
    key: "value"
    value {
      tensor {
        dtype: DT_INT32
        tensor_shape {
          dim {
            size: 1
          }
        }
        int_val: 159
      }
    }
  }
}
node {
  name: "init_ops/report_uninitialized_variables/boolean_mask/strided_slice_1/stack"
  op: "Const"
  device: "/device:CPU:0"
  attr {
    key: "_output_shapes"
    value {
      list {
        shape {
          dim {
            size: 1
          }
        }
      }
    }
  }
  attr {
    key: "dtype"
    value {
      type: DT_INT32
    }
  }
  attr {
    key: "value"
    value {
      tensor {
        dtype: DT_INT32
        tensor_shape {
          dim {
            size: 1
          }
        }
        int_val: 0
      }
    }
  }
}
node {
  name: "init_ops/report_uninitialized_variables/boolean_mask/strided_slice_1/stack_1"
  op: "Const"
  device: "/device:CPU:0"
  attr {
    key: "_output_shapes"
    value {
      list {
        shape {
          dim {
            size: 1
          }
        }
      }
    }
  }
  attr {
    key: "dtype"
    value {
      type: DT_INT32
    }
  }
  attr {
    key: "value"
    value {
      tensor {
        dtype: DT_INT32
        tensor_shape {
          dim {
            size: 1
          }
        }
        int_val: 0
      }
    }
  }
}
node {
  name: "init_ops/report_uninitialized_variables/boolean_mask/strided_slice_1/stack_2"
  op: "Const"
  device: "/device:CPU:0"
  attr {
    key: "_output_shapes"
    value {
      list {
        shape {
          dim {
            size: 1
          }
        }
      }
    }
  }
  attr {
    key: "dtype"
    value {
      type: DT_INT32
    }
  }
  attr {
    key: "value"
    value {
      tensor {
        dtype: DT_INT32
        tensor_shape {
          dim {
            size: 1
          }
        }
        int_val: 1
      }
    }
  }
}
node {
  name: "init_ops/report_uninitialized_variables/boolean_mask/strided_slice_1"
  op: "StridedSlice"
  input: "init_ops/report_uninitialized_variables/boolean_mask/Shape_1"
  input: "init_ops/report_uninitialized_variables/boolean_mask/strided_slice_1/stack"
  input: "init_ops/report_uninitialized_variables/boolean_mask/strided_slice_1/stack_1"
  input: "init_ops/report_uninitialized_variables/boolean_mask/strided_slice_1/stack_2"
  device: "/device:CPU:0"
  attr {
    key: "Index"
    value {
      type: DT_INT32
    }
  }
  attr {
    key: "T"
    value {
      type: DT_INT32
    }
  }
  attr {
    key: "_output_shapes"
    value {
      list {
        shape {
          dim {
          }
        }
      }
    }
  }
  attr {
    key: "begin_mask"
    value {
      i: 1
    }
  }
  attr {
    key: "ellipsis_mask"
    value {
      i: 0
    }
  }
  attr {
    key: "end_mask"
    value {
      i: 0
    }
  }
  attr {
    key: "new_axis_mask"
    value {
      i: 0
    }
  }
  attr {
    key: "shrink_axis_mask"
    value {
      i: 0
    }
  }
}
node {
  name: "init_ops/report_uninitialized_variables/boolean_mask/Shape_2"
  op: "Const"
  device: "/device:CPU:0"
  attr {
    key: "_output_shapes"
    value {
      list {
        shape {
          dim {
            size: 1
          }
        }
      }
    }
  }
  attr {
    key: "dtype"
    value {
      type: DT_INT32
    }
  }
  attr {
    key: "value"
    value {
      tensor {
        dtype: DT_INT32
        tensor_shape {
          dim {
            size: 1
          }
        }
        int_val: 159
      }
    }
  }
}
node {
  name: "init_ops/report_uninitialized_variables/boolean_mask/strided_slice_2/stack"
  op: "Const"
  device: "/device:CPU:0"
  attr {
    key: "_output_shapes"
    value {
      list {
        shape {
          dim {
            size: 1
          }
        }
      }
    }
  }
  attr {
    key: "dtype"
    value {
      type: DT_INT32
    }
  }
  attr {
    key: "value"
    value {
      tensor {
        dtype: DT_INT32
        tensor_shape {
          dim {
            size: 1
          }
        }
        int_val: 1
      }
    }
  }
}
node {
  name: "init_ops/report_uninitialized_variables/boolean_mask/strided_slice_2/stack_1"
  op: "Const"
  device: "/device:CPU:0"
  attr {
    key: "_output_shapes"
    value {
      list {
        shape {
          dim {
            size: 1
          }
        }
      }
    }
  }
  attr {
    key: "dtype"
    value {
      type: DT_INT32
    }
  }
  attr {
    key: "value"
    value {
      tensor {
        dtype: DT_INT32
        tensor_shape {
          dim {
            size: 1
          }
        }
        int_val: 0
      }
    }
  }
}
node {
  name: "init_ops/report_uninitialized_variables/boolean_mask/strided_slice_2/stack_2"
  op: "Const"
  device: "/device:CPU:0"
  attr {
    key: "_output_shapes"
    value {
      list {
        shape {
          dim {
            size: 1
          }
        }
      }
    }
  }
  attr {
    key: "dtype"
    value {
      type: DT_INT32
    }
  }
  attr {
    key: "value"
    value {
      tensor {
        dtype: DT_INT32
        tensor_shape {
          dim {
            size: 1
          }
        }
        int_val: 1
      }
    }
  }
}
node {
  name: "init_ops/report_uninitialized_variables/boolean_mask/strided_slice_2"
  op: "StridedSlice"
  input: "init_ops/report_uninitialized_variables/boolean_mask/Shape_2"
  input: "init_ops/report_uninitialized_variables/boolean_mask/strided_slice_2/stack"
  input: "init_ops/report_uninitialized_variables/boolean_mask/strided_slice_2/stack_1"
  input: "init_ops/report_uninitialized_variables/boolean_mask/strided_slice_2/stack_2"
  device: "/device:CPU:0"
  attr {
    key: "Index"
    value {
      type: DT_INT32
    }
  }
  attr {
    key: "T"
    value {
      type: DT_INT32
    }
  }
  attr {
    key: "_output_shapes"
    value {
      list {
        shape {
          dim {
          }
        }
      }
    }
  }
  attr {
    key: "begin_mask"
    value {
      i: 0
    }
  }
  attr {
    key: "ellipsis_mask"
    value {
      i: 0
    }
  }
  attr {
    key: "end_mask"
    value {
      i: 1
    }
  }
  attr {
    key: "new_axis_mask"
    value {
      i: 0
    }
  }
  attr {
    key: "shrink_axis_mask"
    value {
      i: 0
    }
  }
}
node {
  name: "init_ops/report_uninitialized_variables/boolean_mask/concat/values_1"
  op: "Pack"
  input: "init_ops/report_uninitialized_variables/boolean_mask/Prod"
  device: "/device:CPU:0"
  attr {
    key: "N"
    value {
      i: 1
    }
  }
  attr {
    key: "T"
    value {
      type: DT_INT32
    }
  }
  attr {
    key: "_output_shapes"
    value {
      list {
        shape {
          dim {
            size: 1
          }
        }
      }
    }
  }
  attr {
    key: "axis"
    value {
      i: 0
    }
  }
}
node {
  name: "init_ops/report_uninitialized_variables/boolean_mask/concat/axis"
  op: "Const"
  device: "/device:CPU:0"
  attr {
    key: "_output_shapes"
    value {
      list {
        shape {
        }
      }
    }
  }
  attr {
    key: "dtype"
    value {
      type: DT_INT32
    }
  }
  attr {
    key: "value"
    value {
      tensor {
        dtype: DT_INT32
        tensor_shape {
        }
        int_val: 0
      }
    }
  }
}
node {
  name: "init_ops/report_uninitialized_variables/boolean_mask/concat"
  op: "ConcatV2"
  input: "init_ops/report_uninitialized_variables/boolean_mask/strided_slice_1"
  input: "init_ops/report_uninitialized_variables/boolean_mask/concat/values_1"
  input: "init_ops/report_uninitialized_variables/boolean_mask/strided_slice_2"
  input: "init_ops/report_uninitialized_variables/boolean_mask/concat/axis"
  device: "/device:CPU:0"
  attr {
    key: "N"
    value {
      i: 3
    }
  }
  attr {
    key: "T"
    value {
      type: DT_INT32
    }
  }
  attr {
    key: "Tidx"
    value {
      type: DT_INT32
    }
  }
  attr {
    key: "_output_shapes"
    value {
      list {
        shape {
          dim {
            size: 1
          }
        }
      }
    }
  }
}
node {
  name: "init_ops/report_uninitialized_variables/boolean_mask/Reshape"
  op: "Reshape"
  input: "init_ops/report_uninitialized_variables/Const"
  input: "init_ops/report_uninitialized_variables/boolean_mask/concat"
  device: "/device:CPU:0"
  attr {
    key: "T"
    value {
      type: DT_STRING
    }
  }
  attr {
    key: "Tshape"
    value {
      type: DT_INT32
    }
  }
  attr {
    key: "_output_shapes"
    value {
      list {
        shape {
          dim {
            size: 159
          }
        }
      }
    }
  }
}
node {
  name: "init_ops/report_uninitialized_variables/boolean_mask/Reshape_1/shape"
  op: "Const"
  device: "/device:CPU:0"
  attr {
    key: "_output_shapes"
    value {
      list {
        shape {
          dim {
            size: 1
          }
        }
      }
    }
  }
  attr {
    key: "dtype"
    value {
      type: DT_INT32
    }
  }
  attr {
    key: "value"
    value {
      tensor {
        dtype: DT_INT32
        tensor_shape {
          dim {
            size: 1
          }
        }
        int_val: -1
      }
    }
  }
}
node {
  name: "init_ops/report_uninitialized_variables/boolean_mask/Reshape_1"
  op: "Reshape"
  input: "init_ops/report_uninitialized_variables/LogicalNot"
  input: "init_ops/report_uninitialized_variables/boolean_mask/Reshape_1/shape"
  device: "/device:CPU:0"
  attr {
    key: "T"
    value {
      type: DT_BOOL
    }
  }
  attr {
    key: "Tshape"
    value {
      type: DT_INT32
    }
  }
  attr {
    key: "_output_shapes"
    value {
      list {
        shape {
          dim {
            size: 159
          }
        }
      }
    }
  }
}
node {
  name: "init_ops/report_uninitialized_variables/boolean_mask/Where"
  op: "Where"
  input: "init_ops/report_uninitialized_variables/boolean_mask/Reshape_1"
  device: "/device:CPU:0"
  attr {
    key: "T"
    value {
      type: DT_BOOL
    }
  }
  attr {
    key: "_output_shapes"
    value {
      list {
        shape {
          dim {
            size: -1
          }
          dim {
            size: 1
          }
        }
      }
    }
  }
}
node {
  name: "init_ops/report_uninitialized_variables/boolean_mask/Squeeze"
  op: "Squeeze"
  input: "init_ops/report_uninitialized_variables/boolean_mask/Where"
  device: "/device:CPU:0"
  attr {
    key: "T"
    value {
      type: DT_INT64
    }
  }
  attr {
    key: "_output_shapes"
    value {
      list {
        shape {
          dim {
            size: -1
          }
        }
      }
    }
  }
  attr {
    key: "squeeze_dims"
    value {
      list {
        i: 1
      }
    }
  }
}
node {
  name: "init_ops/report_uninitialized_variables/boolean_mask/GatherV2/axis"
  op: "Const"
  device: "/device:CPU:0"
  attr {
    key: "_output_shapes"
    value {
      list {
        shape {
        }
      }
    }
  }
  attr {
    key: "dtype"
    value {
      type: DT_INT32
    }
  }
  attr {
    key: "value"
    value {
      tensor {
        dtype: DT_INT32
        tensor_shape {
        }
        int_val: 0
      }
    }
  }
}
node {
  name: "init_ops/report_uninitialized_variables/boolean_mask/GatherV2"
  op: "GatherV2"
  input: "init_ops/report_uninitialized_variables/boolean_mask/Reshape"
  input: "init_ops/report_uninitialized_variables/boolean_mask/Squeeze"
  input: "init_ops/report_uninitialized_variables/boolean_mask/GatherV2/axis"
  device: "/device:CPU:0"
  attr {
    key: "Taxis"
    value {
      type: DT_INT32
    }
  }
  attr {
    key: "Tindices"
    value {
      type: DT_INT64
    }
  }
  attr {
    key: "Tparams"
    value {
      type: DT_STRING
    }
  }
  attr {
    key: "_output_shapes"
    value {
      list {
        shape {
          dim {
            size: -1
          }
        }
      }
    }
  }
}
node {
  name: "init_ops/init_1"
  op: "NoOp"
}
node {
  name: "init_ops/init_all_tables"
  op: "NoOp"
}
node {
  name: "init_ops/group_deps"
  op: "NoOp"
  input: "^init_ops/init_1"
  input: "^init_ops/init_all_tables"
}
node {
  name: "Merge/MergeSummary"
  op: "MergeSummary"
  input: "load_batch/parallel_read/filenames/fraction_of_32_full"
  input: "load_batch/parallel_read/fraction_of_1024_full"
  input: "load_batch/batch/fraction_of_32_full"
  input: "image_a"
  input: "image_b"
  input: "loss"
  input: "pred_flow"
  input: "true_flow"
  input: "summarize_grads/FlowNetSD/conv0/weights_gradient"
  input: "summarize_grads/FlowNetSD/conv0/weights_gradient_norm"
  input: "summarize_grads/FlowNetSD/conv0/biases_gradient"
  input: "summarize_grads/FlowNetSD/conv0/biases_gradient_norm"
  input: "summarize_grads/FlowNetSD/conv1/weights_gradient"
  input: "summarize_grads/FlowNetSD/conv1/weights_gradient_norm"
  input: "summarize_grads/FlowNetSD/conv1/biases_gradient"
  input: "summarize_grads/FlowNetSD/conv1/biases_gradient_norm"
  input: "summarize_grads/FlowNetSD/conv1_1/weights_gradient"
  input: "summarize_grads/FlowNetSD/conv1_1/weights_gradient_norm"
  input: "summarize_grads/FlowNetSD/conv1_1/biases_gradient"
  input: "summarize_grads/FlowNetSD/conv1_1/biases_gradient_norm"
  input: "summarize_grads/FlowNetSD/conv2/weights_gradient"
  input: "summarize_grads/FlowNetSD/conv2/weights_gradient_norm"
  input: "summarize_grads/FlowNetSD/conv2/biases_gradient"
  input: "summarize_grads/FlowNetSD/conv2/biases_gradient_norm"
  input: "summarize_grads/FlowNetSD/conv2_1/weights_gradient"
  input: "summarize_grads/FlowNetSD/conv2_1/weights_gradient_norm"
  input: "summarize_grads/FlowNetSD/conv2_1/biases_gradient"
  input: "summarize_grads/FlowNetSD/conv2_1/biases_gradient_norm"
  input: "summarize_grads/FlowNetSD/conv3/weights_gradient"
  input: "summarize_grads/FlowNetSD/conv3/weights_gradient_norm"
  input: "summarize_grads/FlowNetSD/conv3/biases_gradient"
  input: "summarize_grads/FlowNetSD/conv3/biases_gradient_norm"
  input: "summarize_grads/FlowNetSD/conv3_1/weights_gradient"
  input: "summarize_grads/FlowNetSD/conv3_1/weights_gradient_norm"
  input: "summarize_grads/FlowNetSD/conv3_1/biases_gradient"
  input: "summarize_grads/FlowNetSD/conv3_1/biases_gradient_norm"
  input: "summarize_grads/FlowNetSD/conv4/weights_gradient"
  input: "summarize_grads/FlowNetSD/conv4/weights_gradient_norm"
  input: "summarize_grads/FlowNetSD/conv4/biases_gradient"
  input: "summarize_grads/FlowNetSD/conv4/biases_gradient_norm"
  input: "summarize_grads/FlowNetSD/conv4_1/weights_gradient"
  input: "summarize_grads/FlowNetSD/conv4_1/weights_gradient_norm"
  input: "summarize_grads/FlowNetSD/conv4_1/biases_gradient"
  input: "summarize_grads/FlowNetSD/conv4_1/biases_gradient_norm"
  input: "summarize_grads/FlowNetSD/conv5/weights_gradient"
  input: "summarize_grads/FlowNetSD/conv5/weights_gradient_norm"
  input: "summarize_grads/FlowNetSD/conv5/biases_gradient"
  input: "summarize_grads/FlowNetSD/conv5/biases_gradient_norm"
  input: "summarize_grads/FlowNetSD/conv5_1/weights_gradient"
  input: "summarize_grads/FlowNetSD/conv5_1/weights_gradient_norm"
  input: "summarize_grads/FlowNetSD/conv5_1/biases_gradient"
  input: "summarize_grads/FlowNetSD/conv5_1/biases_gradient_norm"
  input: "summarize_grads/FlowNetSD/conv6/weights_gradient"
  input: "summarize_grads/FlowNetSD/conv6/weights_gradient_norm"
  input: "summarize_grads/FlowNetSD/conv6/biases_gradient"
  input: "summarize_grads/FlowNetSD/conv6/biases_gradient_norm"
  input: "summarize_grads/FlowNetSD/conv6_1/weights_gradient"
  input: "summarize_grads/FlowNetSD/conv6_1/weights_gradient_norm"
  input: "summarize_grads/FlowNetSD/conv6_1/biases_gradient"
  input: "summarize_grads/FlowNetSD/conv6_1/biases_gradient_norm"
  input: "summarize_grads/FlowNetSD/predict_flow6/weights_gradient"
  input: "summarize_grads/FlowNetSD/predict_flow6/weights_gradient_norm"
  input: "summarize_grads/FlowNetSD/predict_flow6/biases_gradient"
  input: "summarize_grads/FlowNetSD/predict_flow6/biases_gradient_norm"
  input: "summarize_grads/FlowNetSD/deconv5/weights_gradient"
  input: "summarize_grads/FlowNetSD/deconv5/weights_gradient_norm"
  input: "summarize_grads/FlowNetSD/upsample_flow6to5/weights_gradient"
  input: "summarize_grads/FlowNetSD/upsample_flow6to5/weights_gradient_norm"
  input: "summarize_grads/FlowNetSD/interconv5/weights_gradient"
  input: "summarize_grads/FlowNetSD/interconv5/weights_gradient_norm"
  input: "summarize_grads/FlowNetSD/interconv5/biases_gradient"
  input: "summarize_grads/FlowNetSD/interconv5/biases_gradient_norm"
  input: "summarize_grads/FlowNetSD/predict_flow5/weights_gradient"
  input: "summarize_grads/FlowNetSD/predict_flow5/weights_gradient_norm"
  input: "summarize_grads/FlowNetSD/predict_flow5/biases_gradient"
  input: "summarize_grads/FlowNetSD/predict_flow5/biases_gradient_norm"
  input: "summarize_grads/FlowNetSD/deconv4/weights_gradient"
  input: "summarize_grads/FlowNetSD/deconv4/weights_gradient_norm"
  input: "summarize_grads/FlowNetSD/upsample_flow5to4/weights_gradient"
  input: "summarize_grads/FlowNetSD/upsample_flow5to4/weights_gradient_norm"
  input: "summarize_grads/FlowNetSD/interconv4/weights_gradient"
  input: "summarize_grads/FlowNetSD/interconv4/weights_gradient_norm"
  input: "summarize_grads/FlowNetSD/interconv4/biases_gradient"
  input: "summarize_grads/FlowNetSD/interconv4/biases_gradient_norm"
  input: "summarize_grads/FlowNetSD/predict_flow4/weights_gradient"
  input: "summarize_grads/FlowNetSD/predict_flow4/weights_gradient_norm"
  input: "summarize_grads/FlowNetSD/predict_flow4/biases_gradient"
  input: "summarize_grads/FlowNetSD/predict_flow4/biases_gradient_norm"
  input: "summarize_grads/FlowNetSD/deconv3/weights_gradient"
  input: "summarize_grads/FlowNetSD/deconv3/weights_gradient_norm"
  input: "summarize_grads/FlowNetSD/upsample_flow4to3/weights_gradient"
  input: "summarize_grads/FlowNetSD/upsample_flow4to3/weights_gradient_norm"
  input: "summarize_grads/FlowNetSD/interconv3/weights_gradient"
  input: "summarize_grads/FlowNetSD/interconv3/weights_gradient_norm"
  input: "summarize_grads/FlowNetSD/interconv3/biases_gradient"
  input: "summarize_grads/FlowNetSD/interconv3/biases_gradient_norm"
  input: "summarize_grads/FlowNetSD/predict_flow3/weights_gradient"
  input: "summarize_grads/FlowNetSD/predict_flow3/weights_gradient_norm"
  input: "summarize_grads/FlowNetSD/predict_flow3/biases_gradient"
  input: "summarize_grads/FlowNetSD/predict_flow3/biases_gradient_norm"
  input: "summarize_grads/FlowNetSD/deconv2/weights_gradient"
  input: "summarize_grads/FlowNetSD/deconv2/weights_gradient_norm"
  input: "summarize_grads/FlowNetSD/upsample_flow3to2/weights_gradient"
  input: "summarize_grads/FlowNetSD/upsample_flow3to2/weights_gradient_norm"
  input: "summarize_grads/FlowNetSD/interconv2/weights_gradient"
  input: "summarize_grads/FlowNetSD/interconv2/weights_gradient_norm"
  input: "summarize_grads/FlowNetSD/interconv2/biases_gradient"
  input: "summarize_grads/FlowNetSD/interconv2/biases_gradient_norm"
  input: "summarize_grads/FlowNetSD/predict_flow2/weights_gradient"
  input: "summarize_grads/FlowNetSD/predict_flow2/weights_gradient_norm"
  input: "summarize_grads/FlowNetSD/predict_flow2/biases_gradient"
  input: "summarize_grads/FlowNetSD/predict_flow2/biases_gradient_norm"
  attr {
    key: "N"
    value {
      i: 112
    }
  }
  attr {
    key: "_output_shapes"
    value {
      list {
        shape {
        }
      }
    }
  }
}
node {
  name: "train_step/GreaterEqual/y"
  op: "Const"
  attr {
    key: "_output_shapes"
    value {
      list {
        shape {
        }
      }
    }
  }
  attr {
    key: "dtype"
    value {
      type: DT_INT64
    }
  }
  attr {
    key: "value"
    value {
      tensor {
        dtype: DT_INT64
        tensor_shape {
        }
        int64_val: 1200000
      }
    }
  }
}
node {
  name: "train_step/GreaterEqual"
  op: "GreaterEqual"
  input: "global_step/read"
  input: "train_step/GreaterEqual/y"
  attr {
    key: "T"
    value {
      type: DT_INT64
    }
  }
  attr {
    key: "_output_shapes"
    value {
      list {
        shape {
        }
      }
    }
  }
}
node {
  name: "train_step/FloorMod/y"
  op: "Const"
  attr {
    key: "_output_shapes"
    value {
      list {
        shape {
        }
      }
    }
  }
  attr {
    key: "dtype"
    value {
      type: DT_INT64
    }
  }
  attr {
    key: "value"
    value {
      tensor {
        dtype: DT_INT64
        tensor_shape {
        }
        int64_val: 1
      }
    }
  }
}
node {
  name: "train_step/FloorMod"
  op: "FloorMod"
  input: "global_step/read"
  input: "train_step/FloorMod/y"
  attr {
    key: "T"
    value {
      type: DT_INT64
    }
  }
  attr {
    key: "_output_shapes"
    value {
      list {
        shape {
        }
      }
    }
  }
}
node {
  name: "train_step/Equal/y"
  op: "Const"
  attr {
    key: "_output_shapes"
    value {
      list {
        shape {
        }
      }
    }
  }
  attr {
    key: "dtype"
    value {
      type: DT_INT64
    }
  }
  attr {
    key: "value"
    value {
      tensor {
        dtype: DT_INT64
        tensor_shape {
        }
        int64_val: 0
      }
    }
  }
}
node {
  name: "train_step/Equal"
  op: "Equal"
  input: "train_step/FloorMod"
  input: "train_step/Equal/y"
  attr {
    key: "T"
    value {
      type: DT_INT64
    }
  }
  attr {
    key: "_output_shapes"
    value {
      list {
        shape {
        }
      }
    }
  }
}
versions {
  producer: 26
}
